{
  "nodes": [
    {
      "op": "null", 
      "name": "data", 
      "inputs": []
    }, 
    {
      "op": "null", 
      "name": "conv_0_weight", 
      "attrs": {
        "kernel": "(3, 3)", 
        "no_bias": "True", 
        "num_filter": "32", 
        "pad": "(1, 1)", 
        "stride": "(1, 1)"
      }, 
      "inputs": []
    }, 
    {
      "op": "Convolution", 
      "name": "conv_0", 
      "attrs": {
        "kernel": "(3, 3)", 
        "no_bias": "True", 
        "num_filter": "32", 
        "pad": "(1, 1)", 
        "stride": "(1, 1)"
      }, 
      "inputs": [[0, 0, 0], [1, 0, 0]]
    }, 
    {
      "op": "null", 
      "name": "bn_0_gamma", 
      "attrs": {
        "__wd_mult__": "0.0", 
        "eps": "1e-05", 
        "fix_gamma": "False", 
        "momentum": "0.9"
      }, 
      "inputs": []
    }, 
    {
      "op": "null", 
      "name": "bn_0_beta", 
      "attrs": {
        "__wd_mult__": "0.0", 
        "eps": "1e-05", 
        "fix_gamma": "False", 
        "momentum": "0.9"
      }, 
      "inputs": []
    }, 
    {
      "op": "null", 
      "name": "bn_0_moving_mean", 
      "attrs": {
        "__init__": "[\"zero\", {}]", 
        "__wd_mult__": "0.0", 
        "eps": "1e-05", 
        "fix_gamma": "False", 
        "momentum": "0.9"
      }, 
      "inputs": []
    }, 
    {
      "op": "null", 
      "name": "bn_0_moving_var", 
      "attrs": {
        "__init__": "[\"one\", {}]", 
        "__wd_mult__": "0.0", 
        "eps": "1e-05", 
        "fix_gamma": "False", 
        "momentum": "0.9"
      }, 
      "inputs": []
    }, 
    {
      "op": "BatchNorm", 
      "name": "bn_0", 
      "attrs": {
        "__wd_mult__": "0.0", 
        "eps": "1e-05", 
        "fix_gamma": "False", 
        "momentum": "0.9"
      }, 
      "inputs": [[2, 0, 0], [3, 0, 0], [4, 0, 0], [5, 0, 1], [6, 0, 1]]
    }, 
    {
      "op": "LeakyReLU", 
      "name": "leaky_relu_0", 
      "attrs": {
        "act_type": "leaky", 
        "slope": "0.1"
      }, 
      "inputs": [[7, 0, 0]]
    }, 
    {
      "op": "null", 
      "name": "conv_1_weight", 
      "attrs": {
        "kernel": "(3, 3)", 
        "no_bias": "True", 
        "num_filter": "64", 
        "pad": "(1, 1)", 
        "stride": "(2, 2)"
      }, 
      "inputs": []
    }, 
    {
      "op": "Convolution", 
      "name": "conv_1", 
      "attrs": {
        "kernel": "(3, 3)", 
        "no_bias": "True", 
        "num_filter": "64", 
        "pad": "(1, 1)", 
        "stride": "(2, 2)"
      }, 
      "inputs": [[8, 0, 0], [9, 0, 0]]
    }, 
    {
      "op": "null", 
      "name": "bn_1_gamma", 
      "attrs": {
        "__wd_mult__": "0.0", 
        "eps": "1e-05", 
        "fix_gamma": "False", 
        "momentum": "0.9"
      }, 
      "inputs": []
    }, 
    {
      "op": "null", 
      "name": "bn_1_beta", 
      "attrs": {
        "__wd_mult__": "0.0", 
        "eps": "1e-05", 
        "fix_gamma": "False", 
        "momentum": "0.9"
      }, 
      "inputs": []
    }, 
    {
      "op": "null", 
      "name": "bn_1_moving_mean", 
      "attrs": {
        "__init__": "[\"zero\", {}]", 
        "__wd_mult__": "0.0", 
        "eps": "1e-05", 
        "fix_gamma": "False", 
        "momentum": "0.9"
      }, 
      "inputs": []
    }, 
    {
      "op": "null", 
      "name": "bn_1_moving_var", 
      "attrs": {
        "__init__": "[\"one\", {}]", 
        "__wd_mult__": "0.0", 
        "eps": "1e-05", 
        "fix_gamma": "False", 
        "momentum": "0.9"
      }, 
      "inputs": []
    }, 
    {
      "op": "BatchNorm", 
      "name": "bn_1", 
      "attrs": {
        "__wd_mult__": "0.0", 
        "eps": "1e-05", 
        "fix_gamma": "False", 
        "momentum": "0.9"
      }, 
      "inputs": [[10, 0, 0], [11, 0, 0], [12, 0, 0], [13, 0, 1], [14, 0, 1]]
    }, 
    {
      "op": "LeakyReLU", 
      "name": "leaky_relu_1", 
      "attrs": {
        "act_type": "leaky", 
        "slope": "0.1"
      }, 
      "inputs": [[15, 0, 0]]
    }, 
    {
      "op": "null", 
      "name": "conv_2_weight", 
      "attrs": {
        "kernel": "(1, 1)", 
        "no_bias": "True", 
        "num_filter": "32", 
        "pad": "(0, 0)", 
        "stride": "(1, 1)"
      }, 
      "inputs": []
    }, 
    {
      "op": "Convolution", 
      "name": "conv_2", 
      "attrs": {
        "kernel": "(1, 1)", 
        "no_bias": "True", 
        "num_filter": "32", 
        "pad": "(0, 0)", 
        "stride": "(1, 1)"
      }, 
      "inputs": [[16, 0, 0], [17, 0, 0]]
    }, 
    {
      "op": "null", 
      "name": "bn_2_gamma", 
      "attrs": {
        "__wd_mult__": "0.0", 
        "eps": "1e-05", 
        "fix_gamma": "False", 
        "momentum": "0.9"
      }, 
      "inputs": []
    }, 
    {
      "op": "null", 
      "name": "bn_2_beta", 
      "attrs": {
        "__wd_mult__": "0.0", 
        "eps": "1e-05", 
        "fix_gamma": "False", 
        "momentum": "0.9"
      }, 
      "inputs": []
    }, 
    {
      "op": "null", 
      "name": "bn_2_moving_mean", 
      "attrs": {
        "__init__": "[\"zero\", {}]", 
        "__wd_mult__": "0.0", 
        "eps": "1e-05", 
        "fix_gamma": "False", 
        "momentum": "0.9"
      }, 
      "inputs": []
    }, 
    {
      "op": "null", 
      "name": "bn_2_moving_var", 
      "attrs": {
        "__init__": "[\"one\", {}]", 
        "__wd_mult__": "0.0", 
        "eps": "1e-05", 
        "fix_gamma": "False", 
        "momentum": "0.9"
      }, 
      "inputs": []
    }, 
    {
      "op": "BatchNorm", 
      "name": "bn_2", 
      "attrs": {
        "__wd_mult__": "0.0", 
        "eps": "1e-05", 
        "fix_gamma": "False", 
        "momentum": "0.9"
      }, 
      "inputs": [[18, 0, 0], [19, 0, 0], [20, 0, 0], [21, 0, 1], [22, 0, 1]]
    }, 
    {
      "op": "LeakyReLU", 
      "name": "leaky_relu_2", 
      "attrs": {
        "act_type": "leaky", 
        "slope": "0.1"
      }, 
      "inputs": [[23, 0, 0]]
    }, 
    {
      "op": "null", 
      "name": "conv_3_weight", 
      "attrs": {
        "kernel": "(3, 3)", 
        "no_bias": "True", 
        "num_filter": "64", 
        "pad": "(1, 1)", 
        "stride": "(1, 1)"
      }, 
      "inputs": []
    }, 
    {
      "op": "Convolution", 
      "name": "conv_3", 
      "attrs": {
        "kernel": "(3, 3)", 
        "no_bias": "True", 
        "num_filter": "64", 
        "pad": "(1, 1)", 
        "stride": "(1, 1)"
      }, 
      "inputs": [[24, 0, 0], [25, 0, 0]]
    }, 
    {
      "op": "null", 
      "name": "bn_3_gamma", 
      "attrs": {
        "__wd_mult__": "0.0", 
        "eps": "1e-05", 
        "fix_gamma": "False", 
        "momentum": "0.9"
      }, 
      "inputs": []
    }, 
    {
      "op": "null", 
      "name": "bn_3_beta", 
      "attrs": {
        "__wd_mult__": "0.0", 
        "eps": "1e-05", 
        "fix_gamma": "False", 
        "momentum": "0.9"
      }, 
      "inputs": []
    }, 
    {
      "op": "null", 
      "name": "bn_3_moving_mean", 
      "attrs": {
        "__init__": "[\"zero\", {}]", 
        "__wd_mult__": "0.0", 
        "eps": "1e-05", 
        "fix_gamma": "False", 
        "momentum": "0.9"
      }, 
      "inputs": []
    }, 
    {
      "op": "null", 
      "name": "bn_3_moving_var", 
      "attrs": {
        "__init__": "[\"one\", {}]", 
        "__wd_mult__": "0.0", 
        "eps": "1e-05", 
        "fix_gamma": "False", 
        "momentum": "0.9"
      }, 
      "inputs": []
    }, 
    {
      "op": "BatchNorm", 
      "name": "bn_3", 
      "attrs": {
        "__wd_mult__": "0.0", 
        "eps": "1e-05", 
        "fix_gamma": "False", 
        "momentum": "0.9"
      }, 
      "inputs": [[26, 0, 0], [27, 0, 0], [28, 0, 0], [29, 0, 1], [30, 0, 1]]
    }, 
    {
      "op": "LeakyReLU", 
      "name": "leaky_relu_3", 
      "attrs": {
        "act_type": "leaky", 
        "slope": "0.1"
      }, 
      "inputs": [[31, 0, 0]]
    }, 
    {
      "op": "elemwise_add", 
      "name": "_plus58", 
      "inputs": [[32, 0, 0], [16, 0, 0]]
    }, 
    {
      "op": "null", 
      "name": "conv_4_weight", 
      "attrs": {
        "kernel": "(3, 3)", 
        "no_bias": "True", 
        "num_filter": "128", 
        "pad": "(1, 1)", 
        "stride": "(2, 2)"
      }, 
      "inputs": []
    }, 
    {
      "op": "Convolution", 
      "name": "conv_4", 
      "attrs": {
        "kernel": "(3, 3)", 
        "no_bias": "True", 
        "num_filter": "128", 
        "pad": "(1, 1)", 
        "stride": "(2, 2)"
      }, 
      "inputs": [[33, 0, 0], [34, 0, 0]]
    }, 
    {
      "op": "null", 
      "name": "bn_4_gamma", 
      "attrs": {
        "__wd_mult__": "0.0", 
        "eps": "1e-05", 
        "fix_gamma": "False", 
        "momentum": "0.9"
      }, 
      "inputs": []
    }, 
    {
      "op": "null", 
      "name": "bn_4_beta", 
      "attrs": {
        "__wd_mult__": "0.0", 
        "eps": "1e-05", 
        "fix_gamma": "False", 
        "momentum": "0.9"
      }, 
      "inputs": []
    }, 
    {
      "op": "null", 
      "name": "bn_4_moving_mean", 
      "attrs": {
        "__init__": "[\"zero\", {}]", 
        "__wd_mult__": "0.0", 
        "eps": "1e-05", 
        "fix_gamma": "False", 
        "momentum": "0.9"
      }, 
      "inputs": []
    }, 
    {
      "op": "null", 
      "name": "bn_4_moving_var", 
      "attrs": {
        "__init__": "[\"one\", {}]", 
        "__wd_mult__": "0.0", 
        "eps": "1e-05", 
        "fix_gamma": "False", 
        "momentum": "0.9"
      }, 
      "inputs": []
    }, 
    {
      "op": "BatchNorm", 
      "name": "bn_4", 
      "attrs": {
        "__wd_mult__": "0.0", 
        "eps": "1e-05", 
        "fix_gamma": "False", 
        "momentum": "0.9"
      }, 
      "inputs": [[35, 0, 0], [36, 0, 0], [37, 0, 0], [38, 0, 1], [39, 0, 1]]
    }, 
    {
      "op": "LeakyReLU", 
      "name": "leaky_relu_4", 
      "attrs": {
        "act_type": "leaky", 
        "slope": "0.1"
      }, 
      "inputs": [[40, 0, 0]]
    }, 
    {
      "op": "null", 
      "name": "conv_5_weight", 
      "attrs": {
        "kernel": "(1, 1)", 
        "no_bias": "True", 
        "num_filter": "64", 
        "pad": "(0, 0)", 
        "stride": "(1, 1)"
      }, 
      "inputs": []
    }, 
    {
      "op": "Convolution", 
      "name": "conv_5", 
      "attrs": {
        "kernel": "(1, 1)", 
        "no_bias": "True", 
        "num_filter": "64", 
        "pad": "(0, 0)", 
        "stride": "(1, 1)"
      }, 
      "inputs": [[41, 0, 0], [42, 0, 0]]
    }, 
    {
      "op": "null", 
      "name": "bn_5_gamma", 
      "attrs": {
        "__wd_mult__": "0.0", 
        "eps": "1e-05", 
        "fix_gamma": "False", 
        "momentum": "0.9"
      }, 
      "inputs": []
    }, 
    {
      "op": "null", 
      "name": "bn_5_beta", 
      "attrs": {
        "__wd_mult__": "0.0", 
        "eps": "1e-05", 
        "fix_gamma": "False", 
        "momentum": "0.9"
      }, 
      "inputs": []
    }, 
    {
      "op": "null", 
      "name": "bn_5_moving_mean", 
      "attrs": {
        "__init__": "[\"zero\", {}]", 
        "__wd_mult__": "0.0", 
        "eps": "1e-05", 
        "fix_gamma": "False", 
        "momentum": "0.9"
      }, 
      "inputs": []
    }, 
    {
      "op": "null", 
      "name": "bn_5_moving_var", 
      "attrs": {
        "__init__": "[\"one\", {}]", 
        "__wd_mult__": "0.0", 
        "eps": "1e-05", 
        "fix_gamma": "False", 
        "momentum": "0.9"
      }, 
      "inputs": []
    }, 
    {
      "op": "BatchNorm", 
      "name": "bn_5", 
      "attrs": {
        "__wd_mult__": "0.0", 
        "eps": "1e-05", 
        "fix_gamma": "False", 
        "momentum": "0.9"
      }, 
      "inputs": [[43, 0, 0], [44, 0, 0], [45, 0, 0], [46, 0, 1], [47, 0, 1]]
    }, 
    {
      "op": "LeakyReLU", 
      "name": "leaky_relu_5", 
      "attrs": {
        "act_type": "leaky", 
        "slope": "0.1"
      }, 
      "inputs": [[48, 0, 0]]
    }, 
    {
      "op": "null", 
      "name": "conv_6_weight", 
      "attrs": {
        "kernel": "(3, 3)", 
        "no_bias": "True", 
        "num_filter": "128", 
        "pad": "(1, 1)", 
        "stride": "(1, 1)"
      }, 
      "inputs": []
    }, 
    {
      "op": "Convolution", 
      "name": "conv_6", 
      "attrs": {
        "kernel": "(3, 3)", 
        "no_bias": "True", 
        "num_filter": "128", 
        "pad": "(1, 1)", 
        "stride": "(1, 1)"
      }, 
      "inputs": [[49, 0, 0], [50, 0, 0]]
    }, 
    {
      "op": "null", 
      "name": "bn_6_gamma", 
      "attrs": {
        "__wd_mult__": "0.0", 
        "eps": "1e-05", 
        "fix_gamma": "False", 
        "momentum": "0.9"
      }, 
      "inputs": []
    }, 
    {
      "op": "null", 
      "name": "bn_6_beta", 
      "attrs": {
        "__wd_mult__": "0.0", 
        "eps": "1e-05", 
        "fix_gamma": "False", 
        "momentum": "0.9"
      }, 
      "inputs": []
    }, 
    {
      "op": "null", 
      "name": "bn_6_moving_mean", 
      "attrs": {
        "__init__": "[\"zero\", {}]", 
        "__wd_mult__": "0.0", 
        "eps": "1e-05", 
        "fix_gamma": "False", 
        "momentum": "0.9"
      }, 
      "inputs": []
    }, 
    {
      "op": "null", 
      "name": "bn_6_moving_var", 
      "attrs": {
        "__init__": "[\"one\", {}]", 
        "__wd_mult__": "0.0", 
        "eps": "1e-05", 
        "fix_gamma": "False", 
        "momentum": "0.9"
      }, 
      "inputs": []
    }, 
    {
      "op": "BatchNorm", 
      "name": "bn_6", 
      "attrs": {
        "__wd_mult__": "0.0", 
        "eps": "1e-05", 
        "fix_gamma": "False", 
        "momentum": "0.9"
      }, 
      "inputs": [[51, 0, 0], [52, 0, 0], [53, 0, 0], [54, 0, 1], [55, 0, 1]]
    }, 
    {
      "op": "LeakyReLU", 
      "name": "leaky_relu_6", 
      "attrs": {
        "act_type": "leaky", 
        "slope": "0.1"
      }, 
      "inputs": [[56, 0, 0]]
    }, 
    {
      "op": "elemwise_add", 
      "name": "_plus59", 
      "inputs": [[57, 0, 0], [41, 0, 0]]
    }, 
    {
      "op": "null", 
      "name": "conv_7_weight", 
      "attrs": {
        "kernel": "(1, 1)", 
        "no_bias": "True", 
        "num_filter": "64", 
        "pad": "(0, 0)", 
        "stride": "(1, 1)"
      }, 
      "inputs": []
    }, 
    {
      "op": "Convolution", 
      "name": "conv_7", 
      "attrs": {
        "kernel": "(1, 1)", 
        "no_bias": "True", 
        "num_filter": "64", 
        "pad": "(0, 0)", 
        "stride": "(1, 1)"
      }, 
      "inputs": [[58, 0, 0], [59, 0, 0]]
    }, 
    {
      "op": "null", 
      "name": "bn_7_gamma", 
      "attrs": {
        "__wd_mult__": "0.0", 
        "eps": "1e-05", 
        "fix_gamma": "False", 
        "momentum": "0.9"
      }, 
      "inputs": []
    }, 
    {
      "op": "null", 
      "name": "bn_7_beta", 
      "attrs": {
        "__wd_mult__": "0.0", 
        "eps": "1e-05", 
        "fix_gamma": "False", 
        "momentum": "0.9"
      }, 
      "inputs": []
    }, 
    {
      "op": "null", 
      "name": "bn_7_moving_mean", 
      "attrs": {
        "__init__": "[\"zero\", {}]", 
        "__wd_mult__": "0.0", 
        "eps": "1e-05", 
        "fix_gamma": "False", 
        "momentum": "0.9"
      }, 
      "inputs": []
    }, 
    {
      "op": "null", 
      "name": "bn_7_moving_var", 
      "attrs": {
        "__init__": "[\"one\", {}]", 
        "__wd_mult__": "0.0", 
        "eps": "1e-05", 
        "fix_gamma": "False", 
        "momentum": "0.9"
      }, 
      "inputs": []
    }, 
    {
      "op": "BatchNorm", 
      "name": "bn_7", 
      "attrs": {
        "__wd_mult__": "0.0", 
        "eps": "1e-05", 
        "fix_gamma": "False", 
        "momentum": "0.9"
      }, 
      "inputs": [[60, 0, 0], [61, 0, 0], [62, 0, 0], [63, 0, 1], [64, 0, 1]]
    }, 
    {
      "op": "LeakyReLU", 
      "name": "leaky_relu_7", 
      "attrs": {
        "act_type": "leaky", 
        "slope": "0.1"
      }, 
      "inputs": [[65, 0, 0]]
    }, 
    {
      "op": "null", 
      "name": "conv_8_weight", 
      "attrs": {
        "kernel": "(3, 3)", 
        "no_bias": "True", 
        "num_filter": "128", 
        "pad": "(1, 1)", 
        "stride": "(1, 1)"
      }, 
      "inputs": []
    }, 
    {
      "op": "Convolution", 
      "name": "conv_8", 
      "attrs": {
        "kernel": "(3, 3)", 
        "no_bias": "True", 
        "num_filter": "128", 
        "pad": "(1, 1)", 
        "stride": "(1, 1)"
      }, 
      "inputs": [[66, 0, 0], [67, 0, 0]]
    }, 
    {
      "op": "null", 
      "name": "bn_8_gamma", 
      "attrs": {
        "__wd_mult__": "0.0", 
        "eps": "1e-05", 
        "fix_gamma": "False", 
        "momentum": "0.9"
      }, 
      "inputs": []
    }, 
    {
      "op": "null", 
      "name": "bn_8_beta", 
      "attrs": {
        "__wd_mult__": "0.0", 
        "eps": "1e-05", 
        "fix_gamma": "False", 
        "momentum": "0.9"
      }, 
      "inputs": []
    }, 
    {
      "op": "null", 
      "name": "bn_8_moving_mean", 
      "attrs": {
        "__init__": "[\"zero\", {}]", 
        "__wd_mult__": "0.0", 
        "eps": "1e-05", 
        "fix_gamma": "False", 
        "momentum": "0.9"
      }, 
      "inputs": []
    }, 
    {
      "op": "null", 
      "name": "bn_8_moving_var", 
      "attrs": {
        "__init__": "[\"one\", {}]", 
        "__wd_mult__": "0.0", 
        "eps": "1e-05", 
        "fix_gamma": "False", 
        "momentum": "0.9"
      }, 
      "inputs": []
    }, 
    {
      "op": "BatchNorm", 
      "name": "bn_8", 
      "attrs": {
        "__wd_mult__": "0.0", 
        "eps": "1e-05", 
        "fix_gamma": "False", 
        "momentum": "0.9"
      }, 
      "inputs": [[68, 0, 0], [69, 0, 0], [70, 0, 0], [71, 0, 1], [72, 0, 1]]
    }, 
    {
      "op": "LeakyReLU", 
      "name": "leaky_relu_8", 
      "attrs": {
        "act_type": "leaky", 
        "slope": "0.1"
      }, 
      "inputs": [[73, 0, 0]]
    }, 
    {
      "op": "elemwise_add", 
      "name": "_plus60", 
      "inputs": [[74, 0, 0], [58, 0, 0]]
    }, 
    {
      "op": "null", 
      "name": "conv_9_weight", 
      "attrs": {
        "kernel": "(3, 3)", 
        "no_bias": "True", 
        "num_filter": "256", 
        "pad": "(1, 1)", 
        "stride": "(2, 2)"
      }, 
      "inputs": []
    }, 
    {
      "op": "Convolution", 
      "name": "conv_9", 
      "attrs": {
        "kernel": "(3, 3)", 
        "no_bias": "True", 
        "num_filter": "256", 
        "pad": "(1, 1)", 
        "stride": "(2, 2)"
      }, 
      "inputs": [[75, 0, 0], [76, 0, 0]]
    }, 
    {
      "op": "null", 
      "name": "bn_9_gamma", 
      "attrs": {
        "__wd_mult__": "0.0", 
        "eps": "1e-05", 
        "fix_gamma": "False", 
        "momentum": "0.9"
      }, 
      "inputs": []
    }, 
    {
      "op": "null", 
      "name": "bn_9_beta", 
      "attrs": {
        "__wd_mult__": "0.0", 
        "eps": "1e-05", 
        "fix_gamma": "False", 
        "momentum": "0.9"
      }, 
      "inputs": []
    }, 
    {
      "op": "null", 
      "name": "bn_9_moving_mean", 
      "attrs": {
        "__init__": "[\"zero\", {}]", 
        "__wd_mult__": "0.0", 
        "eps": "1e-05", 
        "fix_gamma": "False", 
        "momentum": "0.9"
      }, 
      "inputs": []
    }, 
    {
      "op": "null", 
      "name": "bn_9_moving_var", 
      "attrs": {
        "__init__": "[\"one\", {}]", 
        "__wd_mult__": "0.0", 
        "eps": "1e-05", 
        "fix_gamma": "False", 
        "momentum": "0.9"
      }, 
      "inputs": []
    }, 
    {
      "op": "BatchNorm", 
      "name": "bn_9", 
      "attrs": {
        "__wd_mult__": "0.0", 
        "eps": "1e-05", 
        "fix_gamma": "False", 
        "momentum": "0.9"
      }, 
      "inputs": [[77, 0, 0], [78, 0, 0], [79, 0, 0], [80, 0, 1], [81, 0, 1]]
    }, 
    {
      "op": "LeakyReLU", 
      "name": "leaky_relu_9", 
      "attrs": {
        "act_type": "leaky", 
        "slope": "0.1"
      }, 
      "inputs": [[82, 0, 0]]
    }, 
    {
      "op": "null", 
      "name": "conv_10_weight", 
      "attrs": {
        "kernel": "(1, 1)", 
        "no_bias": "True", 
        "num_filter": "128", 
        "pad": "(0, 0)", 
        "stride": "(1, 1)"
      }, 
      "inputs": []
    }, 
    {
      "op": "Convolution", 
      "name": "conv_10", 
      "attrs": {
        "kernel": "(1, 1)", 
        "no_bias": "True", 
        "num_filter": "128", 
        "pad": "(0, 0)", 
        "stride": "(1, 1)"
      }, 
      "inputs": [[83, 0, 0], [84, 0, 0]]
    }, 
    {
      "op": "null", 
      "name": "bn_10_gamma", 
      "attrs": {
        "__wd_mult__": "0.0", 
        "eps": "1e-05", 
        "fix_gamma": "False", 
        "momentum": "0.9"
      }, 
      "inputs": []
    }, 
    {
      "op": "null", 
      "name": "bn_10_beta", 
      "attrs": {
        "__wd_mult__": "0.0", 
        "eps": "1e-05", 
        "fix_gamma": "False", 
        "momentum": "0.9"
      }, 
      "inputs": []
    }, 
    {
      "op": "null", 
      "name": "bn_10_moving_mean", 
      "attrs": {
        "__init__": "[\"zero\", {}]", 
        "__wd_mult__": "0.0", 
        "eps": "1e-05", 
        "fix_gamma": "False", 
        "momentum": "0.9"
      }, 
      "inputs": []
    }, 
    {
      "op": "null", 
      "name": "bn_10_moving_var", 
      "attrs": {
        "__init__": "[\"one\", {}]", 
        "__wd_mult__": "0.0", 
        "eps": "1e-05", 
        "fix_gamma": "False", 
        "momentum": "0.9"
      }, 
      "inputs": []
    }, 
    {
      "op": "BatchNorm", 
      "name": "bn_10", 
      "attrs": {
        "__wd_mult__": "0.0", 
        "eps": "1e-05", 
        "fix_gamma": "False", 
        "momentum": "0.9"
      }, 
      "inputs": [[85, 0, 0], [86, 0, 0], [87, 0, 0], [88, 0, 1], [89, 0, 1]]
    }, 
    {
      "op": "LeakyReLU", 
      "name": "leaky_relu_10", 
      "attrs": {
        "act_type": "leaky", 
        "slope": "0.1"
      }, 
      "inputs": [[90, 0, 0]]
    }, 
    {
      "op": "null", 
      "name": "conv_11_weight", 
      "attrs": {
        "kernel": "(3, 3)", 
        "no_bias": "True", 
        "num_filter": "256", 
        "pad": "(1, 1)", 
        "stride": "(1, 1)"
      }, 
      "inputs": []
    }, 
    {
      "op": "Convolution", 
      "name": "conv_11", 
      "attrs": {
        "kernel": "(3, 3)", 
        "no_bias": "True", 
        "num_filter": "256", 
        "pad": "(1, 1)", 
        "stride": "(1, 1)"
      }, 
      "inputs": [[91, 0, 0], [92, 0, 0]]
    }, 
    {
      "op": "null", 
      "name": "bn_11_gamma", 
      "attrs": {
        "__wd_mult__": "0.0", 
        "eps": "1e-05", 
        "fix_gamma": "False", 
        "momentum": "0.9"
      }, 
      "inputs": []
    }, 
    {
      "op": "null", 
      "name": "bn_11_beta", 
      "attrs": {
        "__wd_mult__": "0.0", 
        "eps": "1e-05", 
        "fix_gamma": "False", 
        "momentum": "0.9"
      }, 
      "inputs": []
    }, 
    {
      "op": "null", 
      "name": "bn_11_moving_mean", 
      "attrs": {
        "__init__": "[\"zero\", {}]", 
        "__wd_mult__": "0.0", 
        "eps": "1e-05", 
        "fix_gamma": "False", 
        "momentum": "0.9"
      }, 
      "inputs": []
    }, 
    {
      "op": "null", 
      "name": "bn_11_moving_var", 
      "attrs": {
        "__init__": "[\"one\", {}]", 
        "__wd_mult__": "0.0", 
        "eps": "1e-05", 
        "fix_gamma": "False", 
        "momentum": "0.9"
      }, 
      "inputs": []
    }, 
    {
      "op": "BatchNorm", 
      "name": "bn_11", 
      "attrs": {
        "__wd_mult__": "0.0", 
        "eps": "1e-05", 
        "fix_gamma": "False", 
        "momentum": "0.9"
      }, 
      "inputs": [[93, 0, 0], [94, 0, 0], [95, 0, 0], [96, 0, 1], [97, 0, 1]]
    }, 
    {
      "op": "LeakyReLU", 
      "name": "leaky_relu_11", 
      "attrs": {
        "act_type": "leaky", 
        "slope": "0.1"
      }, 
      "inputs": [[98, 0, 0]]
    }, 
    {
      "op": "elemwise_add", 
      "name": "_plus61", 
      "inputs": [[99, 0, 0], [83, 0, 0]]
    }, 
    {
      "op": "null", 
      "name": "conv_12_weight", 
      "attrs": {
        "kernel": "(1, 1)", 
        "no_bias": "True", 
        "num_filter": "128", 
        "pad": "(0, 0)", 
        "stride": "(1, 1)"
      }, 
      "inputs": []
    }, 
    {
      "op": "Convolution", 
      "name": "conv_12", 
      "attrs": {
        "kernel": "(1, 1)", 
        "no_bias": "True", 
        "num_filter": "128", 
        "pad": "(0, 0)", 
        "stride": "(1, 1)"
      }, 
      "inputs": [[100, 0, 0], [101, 0, 0]]
    }, 
    {
      "op": "null", 
      "name": "bn_12_gamma", 
      "attrs": {
        "__wd_mult__": "0.0", 
        "eps": "1e-05", 
        "fix_gamma": "False", 
        "momentum": "0.9"
      }, 
      "inputs": []
    }, 
    {
      "op": "null", 
      "name": "bn_12_beta", 
      "attrs": {
        "__wd_mult__": "0.0", 
        "eps": "1e-05", 
        "fix_gamma": "False", 
        "momentum": "0.9"
      }, 
      "inputs": []
    }, 
    {
      "op": "null", 
      "name": "bn_12_moving_mean", 
      "attrs": {
        "__init__": "[\"zero\", {}]", 
        "__wd_mult__": "0.0", 
        "eps": "1e-05", 
        "fix_gamma": "False", 
        "momentum": "0.9"
      }, 
      "inputs": []
    }, 
    {
      "op": "null", 
      "name": "bn_12_moving_var", 
      "attrs": {
        "__init__": "[\"one\", {}]", 
        "__wd_mult__": "0.0", 
        "eps": "1e-05", 
        "fix_gamma": "False", 
        "momentum": "0.9"
      }, 
      "inputs": []
    }, 
    {
      "op": "BatchNorm", 
      "name": "bn_12", 
      "attrs": {
        "__wd_mult__": "0.0", 
        "eps": "1e-05", 
        "fix_gamma": "False", 
        "momentum": "0.9"
      }, 
      "inputs": [[102, 0, 0], [103, 0, 0], [104, 0, 0], [105, 0, 1], [106, 0, 1]]
    }, 
    {
      "op": "LeakyReLU", 
      "name": "leaky_relu_12", 
      "attrs": {
        "act_type": "leaky", 
        "slope": "0.1"
      }, 
      "inputs": [[107, 0, 0]]
    }, 
    {
      "op": "null", 
      "name": "conv_13_weight", 
      "attrs": {
        "kernel": "(3, 3)", 
        "no_bias": "True", 
        "num_filter": "256", 
        "pad": "(1, 1)", 
        "stride": "(1, 1)"
      }, 
      "inputs": []
    }, 
    {
      "op": "Convolution", 
      "name": "conv_13", 
      "attrs": {
        "kernel": "(3, 3)", 
        "no_bias": "True", 
        "num_filter": "256", 
        "pad": "(1, 1)", 
        "stride": "(1, 1)"
      }, 
      "inputs": [[108, 0, 0], [109, 0, 0]]
    }, 
    {
      "op": "null", 
      "name": "bn_13_gamma", 
      "attrs": {
        "__wd_mult__": "0.0", 
        "eps": "1e-05", 
        "fix_gamma": "False", 
        "momentum": "0.9"
      }, 
      "inputs": []
    }, 
    {
      "op": "null", 
      "name": "bn_13_beta", 
      "attrs": {
        "__wd_mult__": "0.0", 
        "eps": "1e-05", 
        "fix_gamma": "False", 
        "momentum": "0.9"
      }, 
      "inputs": []
    }, 
    {
      "op": "null", 
      "name": "bn_13_moving_mean", 
      "attrs": {
        "__init__": "[\"zero\", {}]", 
        "__wd_mult__": "0.0", 
        "eps": "1e-05", 
        "fix_gamma": "False", 
        "momentum": "0.9"
      }, 
      "inputs": []
    }, 
    {
      "op": "null", 
      "name": "bn_13_moving_var", 
      "attrs": {
        "__init__": "[\"one\", {}]", 
        "__wd_mult__": "0.0", 
        "eps": "1e-05", 
        "fix_gamma": "False", 
        "momentum": "0.9"
      }, 
      "inputs": []
    }, 
    {
      "op": "BatchNorm", 
      "name": "bn_13", 
      "attrs": {
        "__wd_mult__": "0.0", 
        "eps": "1e-05", 
        "fix_gamma": "False", 
        "momentum": "0.9"
      }, 
      "inputs": [[110, 0, 0], [111, 0, 0], [112, 0, 0], [113, 0, 1], [114, 0, 1]]
    }, 
    {
      "op": "LeakyReLU", 
      "name": "leaky_relu_13", 
      "attrs": {
        "act_type": "leaky", 
        "slope": "0.1"
      }, 
      "inputs": [[115, 0, 0]]
    }, 
    {
      "op": "elemwise_add", 
      "name": "_plus62", 
      "inputs": [[116, 0, 0], [100, 0, 0]]
    }, 
    {
      "op": "null", 
      "name": "conv_14_weight", 
      "attrs": {
        "kernel": "(1, 1)", 
        "no_bias": "True", 
        "num_filter": "128", 
        "pad": "(0, 0)", 
        "stride": "(1, 1)"
      }, 
      "inputs": []
    }, 
    {
      "op": "Convolution", 
      "name": "conv_14", 
      "attrs": {
        "kernel": "(1, 1)", 
        "no_bias": "True", 
        "num_filter": "128", 
        "pad": "(0, 0)", 
        "stride": "(1, 1)"
      }, 
      "inputs": [[117, 0, 0], [118, 0, 0]]
    }, 
    {
      "op": "null", 
      "name": "bn_14_gamma", 
      "attrs": {
        "__wd_mult__": "0.0", 
        "eps": "1e-05", 
        "fix_gamma": "False", 
        "momentum": "0.9"
      }, 
      "inputs": []
    }, 
    {
      "op": "null", 
      "name": "bn_14_beta", 
      "attrs": {
        "__wd_mult__": "0.0", 
        "eps": "1e-05", 
        "fix_gamma": "False", 
        "momentum": "0.9"
      }, 
      "inputs": []
    }, 
    {
      "op": "null", 
      "name": "bn_14_moving_mean", 
      "attrs": {
        "__init__": "[\"zero\", {}]", 
        "__wd_mult__": "0.0", 
        "eps": "1e-05", 
        "fix_gamma": "False", 
        "momentum": "0.9"
      }, 
      "inputs": []
    }, 
    {
      "op": "null", 
      "name": "bn_14_moving_var", 
      "attrs": {
        "__init__": "[\"one\", {}]", 
        "__wd_mult__": "0.0", 
        "eps": "1e-05", 
        "fix_gamma": "False", 
        "momentum": "0.9"
      }, 
      "inputs": []
    }, 
    {
      "op": "BatchNorm", 
      "name": "bn_14", 
      "attrs": {
        "__wd_mult__": "0.0", 
        "eps": "1e-05", 
        "fix_gamma": "False", 
        "momentum": "0.9"
      }, 
      "inputs": [[119, 0, 0], [120, 0, 0], [121, 0, 0], [122, 0, 1], [123, 0, 1]]
    }, 
    {
      "op": "LeakyReLU", 
      "name": "leaky_relu_14", 
      "attrs": {
        "act_type": "leaky", 
        "slope": "0.1"
      }, 
      "inputs": [[124, 0, 0]]
    }, 
    {
      "op": "null", 
      "name": "conv_15_weight", 
      "attrs": {
        "kernel": "(3, 3)", 
        "no_bias": "True", 
        "num_filter": "256", 
        "pad": "(1, 1)", 
        "stride": "(1, 1)"
      }, 
      "inputs": []
    }, 
    {
      "op": "Convolution", 
      "name": "conv_15", 
      "attrs": {
        "kernel": "(3, 3)", 
        "no_bias": "True", 
        "num_filter": "256", 
        "pad": "(1, 1)", 
        "stride": "(1, 1)"
      }, 
      "inputs": [[125, 0, 0], [126, 0, 0]]
    }, 
    {
      "op": "null", 
      "name": "bn_15_gamma", 
      "attrs": {
        "__wd_mult__": "0.0", 
        "eps": "1e-05", 
        "fix_gamma": "False", 
        "momentum": "0.9"
      }, 
      "inputs": []
    }, 
    {
      "op": "null", 
      "name": "bn_15_beta", 
      "attrs": {
        "__wd_mult__": "0.0", 
        "eps": "1e-05", 
        "fix_gamma": "False", 
        "momentum": "0.9"
      }, 
      "inputs": []
    }, 
    {
      "op": "null", 
      "name": "bn_15_moving_mean", 
      "attrs": {
        "__init__": "[\"zero\", {}]", 
        "__wd_mult__": "0.0", 
        "eps": "1e-05", 
        "fix_gamma": "False", 
        "momentum": "0.9"
      }, 
      "inputs": []
    }, 
    {
      "op": "null", 
      "name": "bn_15_moving_var", 
      "attrs": {
        "__init__": "[\"one\", {}]", 
        "__wd_mult__": "0.0", 
        "eps": "1e-05", 
        "fix_gamma": "False", 
        "momentum": "0.9"
      }, 
      "inputs": []
    }, 
    {
      "op": "BatchNorm", 
      "name": "bn_15", 
      "attrs": {
        "__wd_mult__": "0.0", 
        "eps": "1e-05", 
        "fix_gamma": "False", 
        "momentum": "0.9"
      }, 
      "inputs": [[127, 0, 0], [128, 0, 0], [129, 0, 0], [130, 0, 1], [131, 0, 1]]
    }, 
    {
      "op": "LeakyReLU", 
      "name": "leaky_relu_15", 
      "attrs": {
        "act_type": "leaky", 
        "slope": "0.1"
      }, 
      "inputs": [[132, 0, 0]]
    }, 
    {
      "op": "elemwise_add", 
      "name": "_plus63", 
      "inputs": [[133, 0, 0], [117, 0, 0]]
    }, 
    {
      "op": "null", 
      "name": "conv_16_weight", 
      "attrs": {
        "kernel": "(1, 1)", 
        "no_bias": "True", 
        "num_filter": "128", 
        "pad": "(0, 0)", 
        "stride": "(1, 1)"
      }, 
      "inputs": []
    }, 
    {
      "op": "Convolution", 
      "name": "conv_16", 
      "attrs": {
        "kernel": "(1, 1)", 
        "no_bias": "True", 
        "num_filter": "128", 
        "pad": "(0, 0)", 
        "stride": "(1, 1)"
      }, 
      "inputs": [[134, 0, 0], [135, 0, 0]]
    }, 
    {
      "op": "null", 
      "name": "bn_16_gamma", 
      "attrs": {
        "__wd_mult__": "0.0", 
        "eps": "1e-05", 
        "fix_gamma": "False", 
        "momentum": "0.9"
      }, 
      "inputs": []
    }, 
    {
      "op": "null", 
      "name": "bn_16_beta", 
      "attrs": {
        "__wd_mult__": "0.0", 
        "eps": "1e-05", 
        "fix_gamma": "False", 
        "momentum": "0.9"
      }, 
      "inputs": []
    }, 
    {
      "op": "null", 
      "name": "bn_16_moving_mean", 
      "attrs": {
        "__init__": "[\"zero\", {}]", 
        "__wd_mult__": "0.0", 
        "eps": "1e-05", 
        "fix_gamma": "False", 
        "momentum": "0.9"
      }, 
      "inputs": []
    }, 
    {
      "op": "null", 
      "name": "bn_16_moving_var", 
      "attrs": {
        "__init__": "[\"one\", {}]", 
        "__wd_mult__": "0.0", 
        "eps": "1e-05", 
        "fix_gamma": "False", 
        "momentum": "0.9"
      }, 
      "inputs": []
    }, 
    {
      "op": "BatchNorm", 
      "name": "bn_16", 
      "attrs": {
        "__wd_mult__": "0.0", 
        "eps": "1e-05", 
        "fix_gamma": "False", 
        "momentum": "0.9"
      }, 
      "inputs": [[136, 0, 0], [137, 0, 0], [138, 0, 0], [139, 0, 1], [140, 0, 1]]
    }, 
    {
      "op": "LeakyReLU", 
      "name": "leaky_relu_16", 
      "attrs": {
        "act_type": "leaky", 
        "slope": "0.1"
      }, 
      "inputs": [[141, 0, 0]]
    }, 
    {
      "op": "null", 
      "name": "conv_17_weight", 
      "attrs": {
        "kernel": "(3, 3)", 
        "no_bias": "True", 
        "num_filter": "256", 
        "pad": "(1, 1)", 
        "stride": "(1, 1)"
      }, 
      "inputs": []
    }, 
    {
      "op": "Convolution", 
      "name": "conv_17", 
      "attrs": {
        "kernel": "(3, 3)", 
        "no_bias": "True", 
        "num_filter": "256", 
        "pad": "(1, 1)", 
        "stride": "(1, 1)"
      }, 
      "inputs": [[142, 0, 0], [143, 0, 0]]
    }, 
    {
      "op": "null", 
      "name": "bn_17_gamma", 
      "attrs": {
        "__wd_mult__": "0.0", 
        "eps": "1e-05", 
        "fix_gamma": "False", 
        "momentum": "0.9"
      }, 
      "inputs": []
    }, 
    {
      "op": "null", 
      "name": "bn_17_beta", 
      "attrs": {
        "__wd_mult__": "0.0", 
        "eps": "1e-05", 
        "fix_gamma": "False", 
        "momentum": "0.9"
      }, 
      "inputs": []
    }, 
    {
      "op": "null", 
      "name": "bn_17_moving_mean", 
      "attrs": {
        "__init__": "[\"zero\", {}]", 
        "__wd_mult__": "0.0", 
        "eps": "1e-05", 
        "fix_gamma": "False", 
        "momentum": "0.9"
      }, 
      "inputs": []
    }, 
    {
      "op": "null", 
      "name": "bn_17_moving_var", 
      "attrs": {
        "__init__": "[\"one\", {}]", 
        "__wd_mult__": "0.0", 
        "eps": "1e-05", 
        "fix_gamma": "False", 
        "momentum": "0.9"
      }, 
      "inputs": []
    }, 
    {
      "op": "BatchNorm", 
      "name": "bn_17", 
      "attrs": {
        "__wd_mult__": "0.0", 
        "eps": "1e-05", 
        "fix_gamma": "False", 
        "momentum": "0.9"
      }, 
      "inputs": [[144, 0, 0], [145, 0, 0], [146, 0, 0], [147, 0, 1], [148, 0, 1]]
    }, 
    {
      "op": "LeakyReLU", 
      "name": "leaky_relu_17", 
      "attrs": {
        "act_type": "leaky", 
        "slope": "0.1"
      }, 
      "inputs": [[149, 0, 0]]
    }, 
    {
      "op": "elemwise_add", 
      "name": "_plus64", 
      "inputs": [[150, 0, 0], [134, 0, 0]]
    }, 
    {
      "op": "null", 
      "name": "conv_18_weight", 
      "attrs": {
        "kernel": "(1, 1)", 
        "no_bias": "True", 
        "num_filter": "128", 
        "pad": "(0, 0)", 
        "stride": "(1, 1)"
      }, 
      "inputs": []
    }, 
    {
      "op": "Convolution", 
      "name": "conv_18", 
      "attrs": {
        "kernel": "(1, 1)", 
        "no_bias": "True", 
        "num_filter": "128", 
        "pad": "(0, 0)", 
        "stride": "(1, 1)"
      }, 
      "inputs": [[151, 0, 0], [152, 0, 0]]
    }, 
    {
      "op": "null", 
      "name": "bn_18_gamma", 
      "attrs": {
        "__wd_mult__": "0.0", 
        "eps": "1e-05", 
        "fix_gamma": "False", 
        "momentum": "0.9"
      }, 
      "inputs": []
    }, 
    {
      "op": "null", 
      "name": "bn_18_beta", 
      "attrs": {
        "__wd_mult__": "0.0", 
        "eps": "1e-05", 
        "fix_gamma": "False", 
        "momentum": "0.9"
      }, 
      "inputs": []
    }, 
    {
      "op": "null", 
      "name": "bn_18_moving_mean", 
      "attrs": {
        "__init__": "[\"zero\", {}]", 
        "__wd_mult__": "0.0", 
        "eps": "1e-05", 
        "fix_gamma": "False", 
        "momentum": "0.9"
      }, 
      "inputs": []
    }, 
    {
      "op": "null", 
      "name": "bn_18_moving_var", 
      "attrs": {
        "__init__": "[\"one\", {}]", 
        "__wd_mult__": "0.0", 
        "eps": "1e-05", 
        "fix_gamma": "False", 
        "momentum": "0.9"
      }, 
      "inputs": []
    }, 
    {
      "op": "BatchNorm", 
      "name": "bn_18", 
      "attrs": {
        "__wd_mult__": "0.0", 
        "eps": "1e-05", 
        "fix_gamma": "False", 
        "momentum": "0.9"
      }, 
      "inputs": [[153, 0, 0], [154, 0, 0], [155, 0, 0], [156, 0, 1], [157, 0, 1]]
    }, 
    {
      "op": "LeakyReLU", 
      "name": "leaky_relu_18", 
      "attrs": {
        "act_type": "leaky", 
        "slope": "0.1"
      }, 
      "inputs": [[158, 0, 0]]
    }, 
    {
      "op": "null", 
      "name": "conv_19_weight", 
      "attrs": {
        "kernel": "(3, 3)", 
        "no_bias": "True", 
        "num_filter": "256", 
        "pad": "(1, 1)", 
        "stride": "(1, 1)"
      }, 
      "inputs": []
    }, 
    {
      "op": "Convolution", 
      "name": "conv_19", 
      "attrs": {
        "kernel": "(3, 3)", 
        "no_bias": "True", 
        "num_filter": "256", 
        "pad": "(1, 1)", 
        "stride": "(1, 1)"
      }, 
      "inputs": [[159, 0, 0], [160, 0, 0]]
    }, 
    {
      "op": "null", 
      "name": "bn_19_gamma", 
      "attrs": {
        "__wd_mult__": "0.0", 
        "eps": "1e-05", 
        "fix_gamma": "False", 
        "momentum": "0.9"
      }, 
      "inputs": []
    }, 
    {
      "op": "null", 
      "name": "bn_19_beta", 
      "attrs": {
        "__wd_mult__": "0.0", 
        "eps": "1e-05", 
        "fix_gamma": "False", 
        "momentum": "0.9"
      }, 
      "inputs": []
    }, 
    {
      "op": "null", 
      "name": "bn_19_moving_mean", 
      "attrs": {
        "__init__": "[\"zero\", {}]", 
        "__wd_mult__": "0.0", 
        "eps": "1e-05", 
        "fix_gamma": "False", 
        "momentum": "0.9"
      }, 
      "inputs": []
    }, 
    {
      "op": "null", 
      "name": "bn_19_moving_var", 
      "attrs": {
        "__init__": "[\"one\", {}]", 
        "__wd_mult__": "0.0", 
        "eps": "1e-05", 
        "fix_gamma": "False", 
        "momentum": "0.9"
      }, 
      "inputs": []
    }, 
    {
      "op": "BatchNorm", 
      "name": "bn_19", 
      "attrs": {
        "__wd_mult__": "0.0", 
        "eps": "1e-05", 
        "fix_gamma": "False", 
        "momentum": "0.9"
      }, 
      "inputs": [[161, 0, 0], [162, 0, 0], [163, 0, 0], [164, 0, 1], [165, 0, 1]]
    }, 
    {
      "op": "LeakyReLU", 
      "name": "leaky_relu_19", 
      "attrs": {
        "act_type": "leaky", 
        "slope": "0.1"
      }, 
      "inputs": [[166, 0, 0]]
    }, 
    {
      "op": "elemwise_add", 
      "name": "_plus65", 
      "inputs": [[167, 0, 0], [151, 0, 0]]
    }, 
    {
      "op": "null", 
      "name": "conv_20_weight", 
      "attrs": {
        "kernel": "(1, 1)", 
        "no_bias": "True", 
        "num_filter": "128", 
        "pad": "(0, 0)", 
        "stride": "(1, 1)"
      }, 
      "inputs": []
    }, 
    {
      "op": "Convolution", 
      "name": "conv_20", 
      "attrs": {
        "kernel": "(1, 1)", 
        "no_bias": "True", 
        "num_filter": "128", 
        "pad": "(0, 0)", 
        "stride": "(1, 1)"
      }, 
      "inputs": [[168, 0, 0], [169, 0, 0]]
    }, 
    {
      "op": "null", 
      "name": "bn_20_gamma", 
      "attrs": {
        "__wd_mult__": "0.0", 
        "eps": "1e-05", 
        "fix_gamma": "False", 
        "momentum": "0.9"
      }, 
      "inputs": []
    }, 
    {
      "op": "null", 
      "name": "bn_20_beta", 
      "attrs": {
        "__wd_mult__": "0.0", 
        "eps": "1e-05", 
        "fix_gamma": "False", 
        "momentum": "0.9"
      }, 
      "inputs": []
    }, 
    {
      "op": "null", 
      "name": "bn_20_moving_mean", 
      "attrs": {
        "__init__": "[\"zero\", {}]", 
        "__wd_mult__": "0.0", 
        "eps": "1e-05", 
        "fix_gamma": "False", 
        "momentum": "0.9"
      }, 
      "inputs": []
    }, 
    {
      "op": "null", 
      "name": "bn_20_moving_var", 
      "attrs": {
        "__init__": "[\"one\", {}]", 
        "__wd_mult__": "0.0", 
        "eps": "1e-05", 
        "fix_gamma": "False", 
        "momentum": "0.9"
      }, 
      "inputs": []
    }, 
    {
      "op": "BatchNorm", 
      "name": "bn_20", 
      "attrs": {
        "__wd_mult__": "0.0", 
        "eps": "1e-05", 
        "fix_gamma": "False", 
        "momentum": "0.9"
      }, 
      "inputs": [[170, 0, 0], [171, 0, 0], [172, 0, 0], [173, 0, 1], [174, 0, 1]]
    }, 
    {
      "op": "LeakyReLU", 
      "name": "leaky_relu_20", 
      "attrs": {
        "act_type": "leaky", 
        "slope": "0.1"
      }, 
      "inputs": [[175, 0, 0]]
    }, 
    {
      "op": "null", 
      "name": "conv_21_weight", 
      "attrs": {
        "kernel": "(3, 3)", 
        "no_bias": "True", 
        "num_filter": "256", 
        "pad": "(1, 1)", 
        "stride": "(1, 1)"
      }, 
      "inputs": []
    }, 
    {
      "op": "Convolution", 
      "name": "conv_21", 
      "attrs": {
        "kernel": "(3, 3)", 
        "no_bias": "True", 
        "num_filter": "256", 
        "pad": "(1, 1)", 
        "stride": "(1, 1)"
      }, 
      "inputs": [[176, 0, 0], [177, 0, 0]]
    }, 
    {
      "op": "null", 
      "name": "bn_21_gamma", 
      "attrs": {
        "__wd_mult__": "0.0", 
        "eps": "1e-05", 
        "fix_gamma": "False", 
        "momentum": "0.9"
      }, 
      "inputs": []
    }, 
    {
      "op": "null", 
      "name": "bn_21_beta", 
      "attrs": {
        "__wd_mult__": "0.0", 
        "eps": "1e-05", 
        "fix_gamma": "False", 
        "momentum": "0.9"
      }, 
      "inputs": []
    }, 
    {
      "op": "null", 
      "name": "bn_21_moving_mean", 
      "attrs": {
        "__init__": "[\"zero\", {}]", 
        "__wd_mult__": "0.0", 
        "eps": "1e-05", 
        "fix_gamma": "False", 
        "momentum": "0.9"
      }, 
      "inputs": []
    }, 
    {
      "op": "null", 
      "name": "bn_21_moving_var", 
      "attrs": {
        "__init__": "[\"one\", {}]", 
        "__wd_mult__": "0.0", 
        "eps": "1e-05", 
        "fix_gamma": "False", 
        "momentum": "0.9"
      }, 
      "inputs": []
    }, 
    {
      "op": "BatchNorm", 
      "name": "bn_21", 
      "attrs": {
        "__wd_mult__": "0.0", 
        "eps": "1e-05", 
        "fix_gamma": "False", 
        "momentum": "0.9"
      }, 
      "inputs": [[178, 0, 0], [179, 0, 0], [180, 0, 0], [181, 0, 1], [182, 0, 1]]
    }, 
    {
      "op": "LeakyReLU", 
      "name": "leaky_relu_21", 
      "attrs": {
        "act_type": "leaky", 
        "slope": "0.1"
      }, 
      "inputs": [[183, 0, 0]]
    }, 
    {
      "op": "elemwise_add", 
      "name": "_plus66", 
      "inputs": [[184, 0, 0], [168, 0, 0]]
    }, 
    {
      "op": "null", 
      "name": "conv_22_weight", 
      "attrs": {
        "kernel": "(1, 1)", 
        "no_bias": "True", 
        "num_filter": "128", 
        "pad": "(0, 0)", 
        "stride": "(1, 1)"
      }, 
      "inputs": []
    }, 
    {
      "op": "Convolution", 
      "name": "conv_22", 
      "attrs": {
        "kernel": "(1, 1)", 
        "no_bias": "True", 
        "num_filter": "128", 
        "pad": "(0, 0)", 
        "stride": "(1, 1)"
      }, 
      "inputs": [[185, 0, 0], [186, 0, 0]]
    }, 
    {
      "op": "null", 
      "name": "bn_22_gamma", 
      "attrs": {
        "__wd_mult__": "0.0", 
        "eps": "1e-05", 
        "fix_gamma": "False", 
        "momentum": "0.9"
      }, 
      "inputs": []
    }, 
    {
      "op": "null", 
      "name": "bn_22_beta", 
      "attrs": {
        "__wd_mult__": "0.0", 
        "eps": "1e-05", 
        "fix_gamma": "False", 
        "momentum": "0.9"
      }, 
      "inputs": []
    }, 
    {
      "op": "null", 
      "name": "bn_22_moving_mean", 
      "attrs": {
        "__init__": "[\"zero\", {}]", 
        "__wd_mult__": "0.0", 
        "eps": "1e-05", 
        "fix_gamma": "False", 
        "momentum": "0.9"
      }, 
      "inputs": []
    }, 
    {
      "op": "null", 
      "name": "bn_22_moving_var", 
      "attrs": {
        "__init__": "[\"one\", {}]", 
        "__wd_mult__": "0.0", 
        "eps": "1e-05", 
        "fix_gamma": "False", 
        "momentum": "0.9"
      }, 
      "inputs": []
    }, 
    {
      "op": "BatchNorm", 
      "name": "bn_22", 
      "attrs": {
        "__wd_mult__": "0.0", 
        "eps": "1e-05", 
        "fix_gamma": "False", 
        "momentum": "0.9"
      }, 
      "inputs": [[187, 0, 0], [188, 0, 0], [189, 0, 0], [190, 0, 1], [191, 0, 1]]
    }, 
    {
      "op": "LeakyReLU", 
      "name": "leaky_relu_22", 
      "attrs": {
        "act_type": "leaky", 
        "slope": "0.1"
      }, 
      "inputs": [[192, 0, 0]]
    }, 
    {
      "op": "null", 
      "name": "conv_23_weight", 
      "attrs": {
        "kernel": "(3, 3)", 
        "no_bias": "True", 
        "num_filter": "256", 
        "pad": "(1, 1)", 
        "stride": "(1, 1)"
      }, 
      "inputs": []
    }, 
    {
      "op": "Convolution", 
      "name": "conv_23", 
      "attrs": {
        "kernel": "(3, 3)", 
        "no_bias": "True", 
        "num_filter": "256", 
        "pad": "(1, 1)", 
        "stride": "(1, 1)"
      }, 
      "inputs": [[193, 0, 0], [194, 0, 0]]
    }, 
    {
      "op": "null", 
      "name": "bn_23_gamma", 
      "attrs": {
        "__wd_mult__": "0.0", 
        "eps": "1e-05", 
        "fix_gamma": "False", 
        "momentum": "0.9"
      }, 
      "inputs": []
    }, 
    {
      "op": "null", 
      "name": "bn_23_beta", 
      "attrs": {
        "__wd_mult__": "0.0", 
        "eps": "1e-05", 
        "fix_gamma": "False", 
        "momentum": "0.9"
      }, 
      "inputs": []
    }, 
    {
      "op": "null", 
      "name": "bn_23_moving_mean", 
      "attrs": {
        "__init__": "[\"zero\", {}]", 
        "__wd_mult__": "0.0", 
        "eps": "1e-05", 
        "fix_gamma": "False", 
        "momentum": "0.9"
      }, 
      "inputs": []
    }, 
    {
      "op": "null", 
      "name": "bn_23_moving_var", 
      "attrs": {
        "__init__": "[\"one\", {}]", 
        "__wd_mult__": "0.0", 
        "eps": "1e-05", 
        "fix_gamma": "False", 
        "momentum": "0.9"
      }, 
      "inputs": []
    }, 
    {
      "op": "BatchNorm", 
      "name": "bn_23", 
      "attrs": {
        "__wd_mult__": "0.0", 
        "eps": "1e-05", 
        "fix_gamma": "False", 
        "momentum": "0.9"
      }, 
      "inputs": [[195, 0, 0], [196, 0, 0], [197, 0, 0], [198, 0, 1], [199, 0, 1]]
    }, 
    {
      "op": "LeakyReLU", 
      "name": "leaky_relu_23", 
      "attrs": {
        "act_type": "leaky", 
        "slope": "0.1"
      }, 
      "inputs": [[200, 0, 0]]
    }, 
    {
      "op": "elemwise_add", 
      "name": "_plus67", 
      "inputs": [[201, 0, 0], [185, 0, 0]]
    }, 
    {
      "op": "null", 
      "name": "conv_24_weight", 
      "attrs": {
        "kernel": "(1, 1)", 
        "no_bias": "True", 
        "num_filter": "128", 
        "pad": "(0, 0)", 
        "stride": "(1, 1)"
      }, 
      "inputs": []
    }, 
    {
      "op": "Convolution", 
      "name": "conv_24", 
      "attrs": {
        "kernel": "(1, 1)", 
        "no_bias": "True", 
        "num_filter": "128", 
        "pad": "(0, 0)", 
        "stride": "(1, 1)"
      }, 
      "inputs": [[202, 0, 0], [203, 0, 0]]
    }, 
    {
      "op": "null", 
      "name": "bn_24_gamma", 
      "attrs": {
        "__wd_mult__": "0.0", 
        "eps": "1e-05", 
        "fix_gamma": "False", 
        "momentum": "0.9"
      }, 
      "inputs": []
    }, 
    {
      "op": "null", 
      "name": "bn_24_beta", 
      "attrs": {
        "__wd_mult__": "0.0", 
        "eps": "1e-05", 
        "fix_gamma": "False", 
        "momentum": "0.9"
      }, 
      "inputs": []
    }, 
    {
      "op": "null", 
      "name": "bn_24_moving_mean", 
      "attrs": {
        "__init__": "[\"zero\", {}]", 
        "__wd_mult__": "0.0", 
        "eps": "1e-05", 
        "fix_gamma": "False", 
        "momentum": "0.9"
      }, 
      "inputs": []
    }, 
    {
      "op": "null", 
      "name": "bn_24_moving_var", 
      "attrs": {
        "__init__": "[\"one\", {}]", 
        "__wd_mult__": "0.0", 
        "eps": "1e-05", 
        "fix_gamma": "False", 
        "momentum": "0.9"
      }, 
      "inputs": []
    }, 
    {
      "op": "BatchNorm", 
      "name": "bn_24", 
      "attrs": {
        "__wd_mult__": "0.0", 
        "eps": "1e-05", 
        "fix_gamma": "False", 
        "momentum": "0.9"
      }, 
      "inputs": [[204, 0, 0], [205, 0, 0], [206, 0, 0], [207, 0, 1], [208, 0, 1]]
    }, 
    {
      "op": "LeakyReLU", 
      "name": "leaky_relu_24", 
      "attrs": {
        "act_type": "leaky", 
        "slope": "0.1"
      }, 
      "inputs": [[209, 0, 0]]
    }, 
    {
      "op": "null", 
      "name": "conv_25_weight", 
      "attrs": {
        "kernel": "(3, 3)", 
        "no_bias": "True", 
        "num_filter": "256", 
        "pad": "(1, 1)", 
        "stride": "(1, 1)"
      }, 
      "inputs": []
    }, 
    {
      "op": "Convolution", 
      "name": "conv_25", 
      "attrs": {
        "kernel": "(3, 3)", 
        "no_bias": "True", 
        "num_filter": "256", 
        "pad": "(1, 1)", 
        "stride": "(1, 1)"
      }, 
      "inputs": [[210, 0, 0], [211, 0, 0]]
    }, 
    {
      "op": "null", 
      "name": "bn_25_gamma", 
      "attrs": {
        "__wd_mult__": "0.0", 
        "eps": "1e-05", 
        "fix_gamma": "False", 
        "momentum": "0.9"
      }, 
      "inputs": []
    }, 
    {
      "op": "null", 
      "name": "bn_25_beta", 
      "attrs": {
        "__wd_mult__": "0.0", 
        "eps": "1e-05", 
        "fix_gamma": "False", 
        "momentum": "0.9"
      }, 
      "inputs": []
    }, 
    {
      "op": "null", 
      "name": "bn_25_moving_mean", 
      "attrs": {
        "__init__": "[\"zero\", {}]", 
        "__wd_mult__": "0.0", 
        "eps": "1e-05", 
        "fix_gamma": "False", 
        "momentum": "0.9"
      }, 
      "inputs": []
    }, 
    {
      "op": "null", 
      "name": "bn_25_moving_var", 
      "attrs": {
        "__init__": "[\"one\", {}]", 
        "__wd_mult__": "0.0", 
        "eps": "1e-05", 
        "fix_gamma": "False", 
        "momentum": "0.9"
      }, 
      "inputs": []
    }, 
    {
      "op": "BatchNorm", 
      "name": "bn_25", 
      "attrs": {
        "__wd_mult__": "0.0", 
        "eps": "1e-05", 
        "fix_gamma": "False", 
        "momentum": "0.9"
      }, 
      "inputs": [[212, 0, 0], [213, 0, 0], [214, 0, 0], [215, 0, 1], [216, 0, 1]]
    }, 
    {
      "op": "LeakyReLU", 
      "name": "leaky_relu_25", 
      "attrs": {
        "act_type": "leaky", 
        "slope": "0.1"
      }, 
      "inputs": [[217, 0, 0]]
    }, 
    {
      "op": "elemwise_add", 
      "name": "_plus68", 
      "inputs": [[218, 0, 0], [202, 0, 0]]
    }, 
    {
      "op": "null", 
      "name": "conv_26_weight", 
      "attrs": {
        "kernel": "(3, 3)", 
        "no_bias": "True", 
        "num_filter": "512", 
        "pad": "(1, 1)", 
        "stride": "(2, 2)"
      }, 
      "inputs": []
    }, 
    {
      "op": "Convolution", 
      "name": "conv_26", 
      "attrs": {
        "kernel": "(3, 3)", 
        "no_bias": "True", 
        "num_filter": "512", 
        "pad": "(1, 1)", 
        "stride": "(2, 2)"
      }, 
      "inputs": [[219, 0, 0], [220, 0, 0]]
    }, 
    {
      "op": "null", 
      "name": "bn_26_gamma", 
      "attrs": {
        "__wd_mult__": "0.0", 
        "eps": "1e-05", 
        "fix_gamma": "False", 
        "momentum": "0.9"
      }, 
      "inputs": []
    }, 
    {
      "op": "null", 
      "name": "bn_26_beta", 
      "attrs": {
        "__wd_mult__": "0.0", 
        "eps": "1e-05", 
        "fix_gamma": "False", 
        "momentum": "0.9"
      }, 
      "inputs": []
    }, 
    {
      "op": "null", 
      "name": "bn_26_moving_mean", 
      "attrs": {
        "__init__": "[\"zero\", {}]", 
        "__wd_mult__": "0.0", 
        "eps": "1e-05", 
        "fix_gamma": "False", 
        "momentum": "0.9"
      }, 
      "inputs": []
    }, 
    {
      "op": "null", 
      "name": "bn_26_moving_var", 
      "attrs": {
        "__init__": "[\"one\", {}]", 
        "__wd_mult__": "0.0", 
        "eps": "1e-05", 
        "fix_gamma": "False", 
        "momentum": "0.9"
      }, 
      "inputs": []
    }, 
    {
      "op": "BatchNorm", 
      "name": "bn_26", 
      "attrs": {
        "__wd_mult__": "0.0", 
        "eps": "1e-05", 
        "fix_gamma": "False", 
        "momentum": "0.9"
      }, 
      "inputs": [[221, 0, 0], [222, 0, 0], [223, 0, 0], [224, 0, 1], [225, 0, 1]]
    }, 
    {
      "op": "LeakyReLU", 
      "name": "leaky_relu_26", 
      "attrs": {
        "act_type": "leaky", 
        "slope": "0.1"
      }, 
      "inputs": [[226, 0, 0]]
    }, 
    {
      "op": "null", 
      "name": "conv_27_weight", 
      "attrs": {
        "kernel": "(1, 1)", 
        "no_bias": "True", 
        "num_filter": "256", 
        "pad": "(0, 0)", 
        "stride": "(1, 1)"
      }, 
      "inputs": []
    }, 
    {
      "op": "Convolution", 
      "name": "conv_27", 
      "attrs": {
        "kernel": "(1, 1)", 
        "no_bias": "True", 
        "num_filter": "256", 
        "pad": "(0, 0)", 
        "stride": "(1, 1)"
      }, 
      "inputs": [[227, 0, 0], [228, 0, 0]]
    }, 
    {
      "op": "null", 
      "name": "bn_27_gamma", 
      "attrs": {
        "__wd_mult__": "0.0", 
        "eps": "1e-05", 
        "fix_gamma": "False", 
        "momentum": "0.9"
      }, 
      "inputs": []
    }, 
    {
      "op": "null", 
      "name": "bn_27_beta", 
      "attrs": {
        "__wd_mult__": "0.0", 
        "eps": "1e-05", 
        "fix_gamma": "False", 
        "momentum": "0.9"
      }, 
      "inputs": []
    }, 
    {
      "op": "null", 
      "name": "bn_27_moving_mean", 
      "attrs": {
        "__init__": "[\"zero\", {}]", 
        "__wd_mult__": "0.0", 
        "eps": "1e-05", 
        "fix_gamma": "False", 
        "momentum": "0.9"
      }, 
      "inputs": []
    }, 
    {
      "op": "null", 
      "name": "bn_27_moving_var", 
      "attrs": {
        "__init__": "[\"one\", {}]", 
        "__wd_mult__": "0.0", 
        "eps": "1e-05", 
        "fix_gamma": "False", 
        "momentum": "0.9"
      }, 
      "inputs": []
    }, 
    {
      "op": "BatchNorm", 
      "name": "bn_27", 
      "attrs": {
        "__wd_mult__": "0.0", 
        "eps": "1e-05", 
        "fix_gamma": "False", 
        "momentum": "0.9"
      }, 
      "inputs": [[229, 0, 0], [230, 0, 0], [231, 0, 0], [232, 0, 1], [233, 0, 1]]
    }, 
    {
      "op": "LeakyReLU", 
      "name": "leaky_relu_27", 
      "attrs": {
        "act_type": "leaky", 
        "slope": "0.1"
      }, 
      "inputs": [[234, 0, 0]]
    }, 
    {
      "op": "null", 
      "name": "conv_28_weight", 
      "attrs": {
        "kernel": "(3, 3)", 
        "no_bias": "True", 
        "num_filter": "512", 
        "pad": "(1, 1)", 
        "stride": "(1, 1)"
      }, 
      "inputs": []
    }, 
    {
      "op": "Convolution", 
      "name": "conv_28", 
      "attrs": {
        "kernel": "(3, 3)", 
        "no_bias": "True", 
        "num_filter": "512", 
        "pad": "(1, 1)", 
        "stride": "(1, 1)"
      }, 
      "inputs": [[235, 0, 0], [236, 0, 0]]
    }, 
    {
      "op": "null", 
      "name": "bn_28_gamma", 
      "attrs": {
        "__wd_mult__": "0.0", 
        "eps": "1e-05", 
        "fix_gamma": "False", 
        "momentum": "0.9"
      }, 
      "inputs": []
    }, 
    {
      "op": "null", 
      "name": "bn_28_beta", 
      "attrs": {
        "__wd_mult__": "0.0", 
        "eps": "1e-05", 
        "fix_gamma": "False", 
        "momentum": "0.9"
      }, 
      "inputs": []
    }, 
    {
      "op": "null", 
      "name": "bn_28_moving_mean", 
      "attrs": {
        "__init__": "[\"zero\", {}]", 
        "__wd_mult__": "0.0", 
        "eps": "1e-05", 
        "fix_gamma": "False", 
        "momentum": "0.9"
      }, 
      "inputs": []
    }, 
    {
      "op": "null", 
      "name": "bn_28_moving_var", 
      "attrs": {
        "__init__": "[\"one\", {}]", 
        "__wd_mult__": "0.0", 
        "eps": "1e-05", 
        "fix_gamma": "False", 
        "momentum": "0.9"
      }, 
      "inputs": []
    }, 
    {
      "op": "BatchNorm", 
      "name": "bn_28", 
      "attrs": {
        "__wd_mult__": "0.0", 
        "eps": "1e-05", 
        "fix_gamma": "False", 
        "momentum": "0.9"
      }, 
      "inputs": [[237, 0, 0], [238, 0, 0], [239, 0, 0], [240, 0, 1], [241, 0, 1]]
    }, 
    {
      "op": "LeakyReLU", 
      "name": "leaky_relu_28", 
      "attrs": {
        "act_type": "leaky", 
        "slope": "0.1"
      }, 
      "inputs": [[242, 0, 0]]
    }, 
    {
      "op": "elemwise_add", 
      "name": "_plus69", 
      "inputs": [[243, 0, 0], [227, 0, 0]]
    }, 
    {
      "op": "null", 
      "name": "conv_29_weight", 
      "attrs": {
        "kernel": "(1, 1)", 
        "no_bias": "True", 
        "num_filter": "256", 
        "pad": "(0, 0)", 
        "stride": "(1, 1)"
      }, 
      "inputs": []
    }, 
    {
      "op": "Convolution", 
      "name": "conv_29", 
      "attrs": {
        "kernel": "(1, 1)", 
        "no_bias": "True", 
        "num_filter": "256", 
        "pad": "(0, 0)", 
        "stride": "(1, 1)"
      }, 
      "inputs": [[244, 0, 0], [245, 0, 0]]
    }, 
    {
      "op": "null", 
      "name": "bn_29_gamma", 
      "attrs": {
        "__wd_mult__": "0.0", 
        "eps": "1e-05", 
        "fix_gamma": "False", 
        "momentum": "0.9"
      }, 
      "inputs": []
    }, 
    {
      "op": "null", 
      "name": "bn_29_beta", 
      "attrs": {
        "__wd_mult__": "0.0", 
        "eps": "1e-05", 
        "fix_gamma": "False", 
        "momentum": "0.9"
      }, 
      "inputs": []
    }, 
    {
      "op": "null", 
      "name": "bn_29_moving_mean", 
      "attrs": {
        "__init__": "[\"zero\", {}]", 
        "__wd_mult__": "0.0", 
        "eps": "1e-05", 
        "fix_gamma": "False", 
        "momentum": "0.9"
      }, 
      "inputs": []
    }, 
    {
      "op": "null", 
      "name": "bn_29_moving_var", 
      "attrs": {
        "__init__": "[\"one\", {}]", 
        "__wd_mult__": "0.0", 
        "eps": "1e-05", 
        "fix_gamma": "False", 
        "momentum": "0.9"
      }, 
      "inputs": []
    }, 
    {
      "op": "BatchNorm", 
      "name": "bn_29", 
      "attrs": {
        "__wd_mult__": "0.0", 
        "eps": "1e-05", 
        "fix_gamma": "False", 
        "momentum": "0.9"
      }, 
      "inputs": [[246, 0, 0], [247, 0, 0], [248, 0, 0], [249, 0, 1], [250, 0, 1]]
    }, 
    {
      "op": "LeakyReLU", 
      "name": "leaky_relu_29", 
      "attrs": {
        "act_type": "leaky", 
        "slope": "0.1"
      }, 
      "inputs": [[251, 0, 0]]
    }, 
    {
      "op": "null", 
      "name": "conv_30_weight", 
      "attrs": {
        "kernel": "(3, 3)", 
        "no_bias": "True", 
        "num_filter": "512", 
        "pad": "(1, 1)", 
        "stride": "(1, 1)"
      }, 
      "inputs": []
    }, 
    {
      "op": "Convolution", 
      "name": "conv_30", 
      "attrs": {
        "kernel": "(3, 3)", 
        "no_bias": "True", 
        "num_filter": "512", 
        "pad": "(1, 1)", 
        "stride": "(1, 1)"
      }, 
      "inputs": [[252, 0, 0], [253, 0, 0]]
    }, 
    {
      "op": "null", 
      "name": "bn_30_gamma", 
      "attrs": {
        "__wd_mult__": "0.0", 
        "eps": "1e-05", 
        "fix_gamma": "False", 
        "momentum": "0.9"
      }, 
      "inputs": []
    }, 
    {
      "op": "null", 
      "name": "bn_30_beta", 
      "attrs": {
        "__wd_mult__": "0.0", 
        "eps": "1e-05", 
        "fix_gamma": "False", 
        "momentum": "0.9"
      }, 
      "inputs": []
    }, 
    {
      "op": "null", 
      "name": "bn_30_moving_mean", 
      "attrs": {
        "__init__": "[\"zero\", {}]", 
        "__wd_mult__": "0.0", 
        "eps": "1e-05", 
        "fix_gamma": "False", 
        "momentum": "0.9"
      }, 
      "inputs": []
    }, 
    {
      "op": "null", 
      "name": "bn_30_moving_var", 
      "attrs": {
        "__init__": "[\"one\", {}]", 
        "__wd_mult__": "0.0", 
        "eps": "1e-05", 
        "fix_gamma": "False", 
        "momentum": "0.9"
      }, 
      "inputs": []
    }, 
    {
      "op": "BatchNorm", 
      "name": "bn_30", 
      "attrs": {
        "__wd_mult__": "0.0", 
        "eps": "1e-05", 
        "fix_gamma": "False", 
        "momentum": "0.9"
      }, 
      "inputs": [[254, 0, 0], [255, 0, 0], [256, 0, 0], [257, 0, 1], [258, 0, 1]]
    }, 
    {
      "op": "LeakyReLU", 
      "name": "leaky_relu_30", 
      "attrs": {
        "act_type": "leaky", 
        "slope": "0.1"
      }, 
      "inputs": [[259, 0, 0]]
    }, 
    {
      "op": "elemwise_add", 
      "name": "_plus70", 
      "inputs": [[260, 0, 0], [244, 0, 0]]
    }, 
    {
      "op": "null", 
      "name": "conv_31_weight", 
      "attrs": {
        "kernel": "(1, 1)", 
        "no_bias": "True", 
        "num_filter": "256", 
        "pad": "(0, 0)", 
        "stride": "(1, 1)"
      }, 
      "inputs": []
    }, 
    {
      "op": "Convolution", 
      "name": "conv_31", 
      "attrs": {
        "kernel": "(1, 1)", 
        "no_bias": "True", 
        "num_filter": "256", 
        "pad": "(0, 0)", 
        "stride": "(1, 1)"
      }, 
      "inputs": [[261, 0, 0], [262, 0, 0]]
    }, 
    {
      "op": "null", 
      "name": "bn_31_gamma", 
      "attrs": {
        "__wd_mult__": "0.0", 
        "eps": "1e-05", 
        "fix_gamma": "False", 
        "momentum": "0.9"
      }, 
      "inputs": []
    }, 
    {
      "op": "null", 
      "name": "bn_31_beta", 
      "attrs": {
        "__wd_mult__": "0.0", 
        "eps": "1e-05", 
        "fix_gamma": "False", 
        "momentum": "0.9"
      }, 
      "inputs": []
    }, 
    {
      "op": "null", 
      "name": "bn_31_moving_mean", 
      "attrs": {
        "__init__": "[\"zero\", {}]", 
        "__wd_mult__": "0.0", 
        "eps": "1e-05", 
        "fix_gamma": "False", 
        "momentum": "0.9"
      }, 
      "inputs": []
    }, 
    {
      "op": "null", 
      "name": "bn_31_moving_var", 
      "attrs": {
        "__init__": "[\"one\", {}]", 
        "__wd_mult__": "0.0", 
        "eps": "1e-05", 
        "fix_gamma": "False", 
        "momentum": "0.9"
      }, 
      "inputs": []
    }, 
    {
      "op": "BatchNorm", 
      "name": "bn_31", 
      "attrs": {
        "__wd_mult__": "0.0", 
        "eps": "1e-05", 
        "fix_gamma": "False", 
        "momentum": "0.9"
      }, 
      "inputs": [[263, 0, 0], [264, 0, 0], [265, 0, 0], [266, 0, 1], [267, 0, 1]]
    }, 
    {
      "op": "LeakyReLU", 
      "name": "leaky_relu_31", 
      "attrs": {
        "act_type": "leaky", 
        "slope": "0.1"
      }, 
      "inputs": [[268, 0, 0]]
    }, 
    {
      "op": "null", 
      "name": "conv_32_weight", 
      "attrs": {
        "kernel": "(3, 3)", 
        "no_bias": "True", 
        "num_filter": "512", 
        "pad": "(1, 1)", 
        "stride": "(1, 1)"
      }, 
      "inputs": []
    }, 
    {
      "op": "Convolution", 
      "name": "conv_32", 
      "attrs": {
        "kernel": "(3, 3)", 
        "no_bias": "True", 
        "num_filter": "512", 
        "pad": "(1, 1)", 
        "stride": "(1, 1)"
      }, 
      "inputs": [[269, 0, 0], [270, 0, 0]]
    }, 
    {
      "op": "null", 
      "name": "bn_32_gamma", 
      "attrs": {
        "__wd_mult__": "0.0", 
        "eps": "1e-05", 
        "fix_gamma": "False", 
        "momentum": "0.9"
      }, 
      "inputs": []
    }, 
    {
      "op": "null", 
      "name": "bn_32_beta", 
      "attrs": {
        "__wd_mult__": "0.0", 
        "eps": "1e-05", 
        "fix_gamma": "False", 
        "momentum": "0.9"
      }, 
      "inputs": []
    }, 
    {
      "op": "null", 
      "name": "bn_32_moving_mean", 
      "attrs": {
        "__init__": "[\"zero\", {}]", 
        "__wd_mult__": "0.0", 
        "eps": "1e-05", 
        "fix_gamma": "False", 
        "momentum": "0.9"
      }, 
      "inputs": []
    }, 
    {
      "op": "null", 
      "name": "bn_32_moving_var", 
      "attrs": {
        "__init__": "[\"one\", {}]", 
        "__wd_mult__": "0.0", 
        "eps": "1e-05", 
        "fix_gamma": "False", 
        "momentum": "0.9"
      }, 
      "inputs": []
    }, 
    {
      "op": "BatchNorm", 
      "name": "bn_32", 
      "attrs": {
        "__wd_mult__": "0.0", 
        "eps": "1e-05", 
        "fix_gamma": "False", 
        "momentum": "0.9"
      }, 
      "inputs": [[271, 0, 0], [272, 0, 0], [273, 0, 0], [274, 0, 1], [275, 0, 1]]
    }, 
    {
      "op": "LeakyReLU", 
      "name": "leaky_relu_32", 
      "attrs": {
        "act_type": "leaky", 
        "slope": "0.1"
      }, 
      "inputs": [[276, 0, 0]]
    }, 
    {
      "op": "elemwise_add", 
      "name": "_plus71", 
      "inputs": [[277, 0, 0], [261, 0, 0]]
    }, 
    {
      "op": "null", 
      "name": "conv_33_weight", 
      "attrs": {
        "kernel": "(1, 1)", 
        "no_bias": "True", 
        "num_filter": "256", 
        "pad": "(0, 0)", 
        "stride": "(1, 1)"
      }, 
      "inputs": []
    }, 
    {
      "op": "Convolution", 
      "name": "conv_33", 
      "attrs": {
        "kernel": "(1, 1)", 
        "no_bias": "True", 
        "num_filter": "256", 
        "pad": "(0, 0)", 
        "stride": "(1, 1)"
      }, 
      "inputs": [[278, 0, 0], [279, 0, 0]]
    }, 
    {
      "op": "null", 
      "name": "bn_33_gamma", 
      "attrs": {
        "__wd_mult__": "0.0", 
        "eps": "1e-05", 
        "fix_gamma": "False", 
        "momentum": "0.9"
      }, 
      "inputs": []
    }, 
    {
      "op": "null", 
      "name": "bn_33_beta", 
      "attrs": {
        "__wd_mult__": "0.0", 
        "eps": "1e-05", 
        "fix_gamma": "False", 
        "momentum": "0.9"
      }, 
      "inputs": []
    }, 
    {
      "op": "null", 
      "name": "bn_33_moving_mean", 
      "attrs": {
        "__init__": "[\"zero\", {}]", 
        "__wd_mult__": "0.0", 
        "eps": "1e-05", 
        "fix_gamma": "False", 
        "momentum": "0.9"
      }, 
      "inputs": []
    }, 
    {
      "op": "null", 
      "name": "bn_33_moving_var", 
      "attrs": {
        "__init__": "[\"one\", {}]", 
        "__wd_mult__": "0.0", 
        "eps": "1e-05", 
        "fix_gamma": "False", 
        "momentum": "0.9"
      }, 
      "inputs": []
    }, 
    {
      "op": "BatchNorm", 
      "name": "bn_33", 
      "attrs": {
        "__wd_mult__": "0.0", 
        "eps": "1e-05", 
        "fix_gamma": "False", 
        "momentum": "0.9"
      }, 
      "inputs": [[280, 0, 0], [281, 0, 0], [282, 0, 0], [283, 0, 1], [284, 0, 1]]
    }, 
    {
      "op": "LeakyReLU", 
      "name": "leaky_relu_33", 
      "attrs": {
        "act_type": "leaky", 
        "slope": "0.1"
      }, 
      "inputs": [[285, 0, 0]]
    }, 
    {
      "op": "null", 
      "name": "conv_34_weight", 
      "attrs": {
        "kernel": "(3, 3)", 
        "no_bias": "True", 
        "num_filter": "512", 
        "pad": "(1, 1)", 
        "stride": "(1, 1)"
      }, 
      "inputs": []
    }, 
    {
      "op": "Convolution", 
      "name": "conv_34", 
      "attrs": {
        "kernel": "(3, 3)", 
        "no_bias": "True", 
        "num_filter": "512", 
        "pad": "(1, 1)", 
        "stride": "(1, 1)"
      }, 
      "inputs": [[286, 0, 0], [287, 0, 0]]
    }, 
    {
      "op": "null", 
      "name": "bn_34_gamma", 
      "attrs": {
        "__wd_mult__": "0.0", 
        "eps": "1e-05", 
        "fix_gamma": "False", 
        "momentum": "0.9"
      }, 
      "inputs": []
    }, 
    {
      "op": "null", 
      "name": "bn_34_beta", 
      "attrs": {
        "__wd_mult__": "0.0", 
        "eps": "1e-05", 
        "fix_gamma": "False", 
        "momentum": "0.9"
      }, 
      "inputs": []
    }, 
    {
      "op": "null", 
      "name": "bn_34_moving_mean", 
      "attrs": {
        "__init__": "[\"zero\", {}]", 
        "__wd_mult__": "0.0", 
        "eps": "1e-05", 
        "fix_gamma": "False", 
        "momentum": "0.9"
      }, 
      "inputs": []
    }, 
    {
      "op": "null", 
      "name": "bn_34_moving_var", 
      "attrs": {
        "__init__": "[\"one\", {}]", 
        "__wd_mult__": "0.0", 
        "eps": "1e-05", 
        "fix_gamma": "False", 
        "momentum": "0.9"
      }, 
      "inputs": []
    }, 
    {
      "op": "BatchNorm", 
      "name": "bn_34", 
      "attrs": {
        "__wd_mult__": "0.0", 
        "eps": "1e-05", 
        "fix_gamma": "False", 
        "momentum": "0.9"
      }, 
      "inputs": [[288, 0, 0], [289, 0, 0], [290, 0, 0], [291, 0, 1], [292, 0, 1]]
    }, 
    {
      "op": "LeakyReLU", 
      "name": "leaky_relu_34", 
      "attrs": {
        "act_type": "leaky", 
        "slope": "0.1"
      }, 
      "inputs": [[293, 0, 0]]
    }, 
    {
      "op": "elemwise_add", 
      "name": "_plus72", 
      "inputs": [[294, 0, 0], [278, 0, 0]]
    }, 
    {
      "op": "null", 
      "name": "conv_35_weight", 
      "attrs": {
        "kernel": "(1, 1)", 
        "no_bias": "True", 
        "num_filter": "256", 
        "pad": "(0, 0)", 
        "stride": "(1, 1)"
      }, 
      "inputs": []
    }, 
    {
      "op": "Convolution", 
      "name": "conv_35", 
      "attrs": {
        "kernel": "(1, 1)", 
        "no_bias": "True", 
        "num_filter": "256", 
        "pad": "(0, 0)", 
        "stride": "(1, 1)"
      }, 
      "inputs": [[295, 0, 0], [296, 0, 0]]
    }, 
    {
      "op": "null", 
      "name": "bn_35_gamma", 
      "attrs": {
        "__wd_mult__": "0.0", 
        "eps": "1e-05", 
        "fix_gamma": "False", 
        "momentum": "0.9"
      }, 
      "inputs": []
    }, 
    {
      "op": "null", 
      "name": "bn_35_beta", 
      "attrs": {
        "__wd_mult__": "0.0", 
        "eps": "1e-05", 
        "fix_gamma": "False", 
        "momentum": "0.9"
      }, 
      "inputs": []
    }, 
    {
      "op": "null", 
      "name": "bn_35_moving_mean", 
      "attrs": {
        "__init__": "[\"zero\", {}]", 
        "__wd_mult__": "0.0", 
        "eps": "1e-05", 
        "fix_gamma": "False", 
        "momentum": "0.9"
      }, 
      "inputs": []
    }, 
    {
      "op": "null", 
      "name": "bn_35_moving_var", 
      "attrs": {
        "__init__": "[\"one\", {}]", 
        "__wd_mult__": "0.0", 
        "eps": "1e-05", 
        "fix_gamma": "False", 
        "momentum": "0.9"
      }, 
      "inputs": []
    }, 
    {
      "op": "BatchNorm", 
      "name": "bn_35", 
      "attrs": {
        "__wd_mult__": "0.0", 
        "eps": "1e-05", 
        "fix_gamma": "False", 
        "momentum": "0.9"
      }, 
      "inputs": [[297, 0, 0], [298, 0, 0], [299, 0, 0], [300, 0, 1], [301, 0, 1]]
    }, 
    {
      "op": "LeakyReLU", 
      "name": "leaky_relu_35", 
      "attrs": {
        "act_type": "leaky", 
        "slope": "0.1"
      }, 
      "inputs": [[302, 0, 0]]
    }, 
    {
      "op": "null", 
      "name": "conv_36_weight", 
      "attrs": {
        "kernel": "(3, 3)", 
        "no_bias": "True", 
        "num_filter": "512", 
        "pad": "(1, 1)", 
        "stride": "(1, 1)"
      }, 
      "inputs": []
    }, 
    {
      "op": "Convolution", 
      "name": "conv_36", 
      "attrs": {
        "kernel": "(3, 3)", 
        "no_bias": "True", 
        "num_filter": "512", 
        "pad": "(1, 1)", 
        "stride": "(1, 1)"
      }, 
      "inputs": [[303, 0, 0], [304, 0, 0]]
    }, 
    {
      "op": "null", 
      "name": "bn_36_gamma", 
      "attrs": {
        "__wd_mult__": "0.0", 
        "eps": "1e-05", 
        "fix_gamma": "False", 
        "momentum": "0.9"
      }, 
      "inputs": []
    }, 
    {
      "op": "null", 
      "name": "bn_36_beta", 
      "attrs": {
        "__wd_mult__": "0.0", 
        "eps": "1e-05", 
        "fix_gamma": "False", 
        "momentum": "0.9"
      }, 
      "inputs": []
    }, 
    {
      "op": "null", 
      "name": "bn_36_moving_mean", 
      "attrs": {
        "__init__": "[\"zero\", {}]", 
        "__wd_mult__": "0.0", 
        "eps": "1e-05", 
        "fix_gamma": "False", 
        "momentum": "0.9"
      }, 
      "inputs": []
    }, 
    {
      "op": "null", 
      "name": "bn_36_moving_var", 
      "attrs": {
        "__init__": "[\"one\", {}]", 
        "__wd_mult__": "0.0", 
        "eps": "1e-05", 
        "fix_gamma": "False", 
        "momentum": "0.9"
      }, 
      "inputs": []
    }, 
    {
      "op": "BatchNorm", 
      "name": "bn_36", 
      "attrs": {
        "__wd_mult__": "0.0", 
        "eps": "1e-05", 
        "fix_gamma": "False", 
        "momentum": "0.9"
      }, 
      "inputs": [[305, 0, 0], [306, 0, 0], [307, 0, 0], [308, 0, 1], [309, 0, 1]]
    }, 
    {
      "op": "LeakyReLU", 
      "name": "leaky_relu_36", 
      "attrs": {
        "act_type": "leaky", 
        "slope": "0.1"
      }, 
      "inputs": [[310, 0, 0]]
    }, 
    {
      "op": "elemwise_add", 
      "name": "_plus73", 
      "inputs": [[311, 0, 0], [295, 0, 0]]
    }, 
    {
      "op": "null", 
      "name": "conv_37_weight", 
      "attrs": {
        "kernel": "(1, 1)", 
        "no_bias": "True", 
        "num_filter": "256", 
        "pad": "(0, 0)", 
        "stride": "(1, 1)"
      }, 
      "inputs": []
    }, 
    {
      "op": "Convolution", 
      "name": "conv_37", 
      "attrs": {
        "kernel": "(1, 1)", 
        "no_bias": "True", 
        "num_filter": "256", 
        "pad": "(0, 0)", 
        "stride": "(1, 1)"
      }, 
      "inputs": [[312, 0, 0], [313, 0, 0]]
    }, 
    {
      "op": "null", 
      "name": "bn_37_gamma", 
      "attrs": {
        "__wd_mult__": "0.0", 
        "eps": "1e-05", 
        "fix_gamma": "False", 
        "momentum": "0.9"
      }, 
      "inputs": []
    }, 
    {
      "op": "null", 
      "name": "bn_37_beta", 
      "attrs": {
        "__wd_mult__": "0.0", 
        "eps": "1e-05", 
        "fix_gamma": "False", 
        "momentum": "0.9"
      }, 
      "inputs": []
    }, 
    {
      "op": "null", 
      "name": "bn_37_moving_mean", 
      "attrs": {
        "__init__": "[\"zero\", {}]", 
        "__wd_mult__": "0.0", 
        "eps": "1e-05", 
        "fix_gamma": "False", 
        "momentum": "0.9"
      }, 
      "inputs": []
    }, 
    {
      "op": "null", 
      "name": "bn_37_moving_var", 
      "attrs": {
        "__init__": "[\"one\", {}]", 
        "__wd_mult__": "0.0", 
        "eps": "1e-05", 
        "fix_gamma": "False", 
        "momentum": "0.9"
      }, 
      "inputs": []
    }, 
    {
      "op": "BatchNorm", 
      "name": "bn_37", 
      "attrs": {
        "__wd_mult__": "0.0", 
        "eps": "1e-05", 
        "fix_gamma": "False", 
        "momentum": "0.9"
      }, 
      "inputs": [[314, 0, 0], [315, 0, 0], [316, 0, 0], [317, 0, 1], [318, 0, 1]]
    }, 
    {
      "op": "LeakyReLU", 
      "name": "leaky_relu_37", 
      "attrs": {
        "act_type": "leaky", 
        "slope": "0.1"
      }, 
      "inputs": [[319, 0, 0]]
    }, 
    {
      "op": "null", 
      "name": "conv_38_weight", 
      "attrs": {
        "kernel": "(3, 3)", 
        "no_bias": "True", 
        "num_filter": "512", 
        "pad": "(1, 1)", 
        "stride": "(1, 1)"
      }, 
      "inputs": []
    }, 
    {
      "op": "Convolution", 
      "name": "conv_38", 
      "attrs": {
        "kernel": "(3, 3)", 
        "no_bias": "True", 
        "num_filter": "512", 
        "pad": "(1, 1)", 
        "stride": "(1, 1)"
      }, 
      "inputs": [[320, 0, 0], [321, 0, 0]]
    }, 
    {
      "op": "null", 
      "name": "bn_38_gamma", 
      "attrs": {
        "__wd_mult__": "0.0", 
        "eps": "1e-05", 
        "fix_gamma": "False", 
        "momentum": "0.9"
      }, 
      "inputs": []
    }, 
    {
      "op": "null", 
      "name": "bn_38_beta", 
      "attrs": {
        "__wd_mult__": "0.0", 
        "eps": "1e-05", 
        "fix_gamma": "False", 
        "momentum": "0.9"
      }, 
      "inputs": []
    }, 
    {
      "op": "null", 
      "name": "bn_38_moving_mean", 
      "attrs": {
        "__init__": "[\"zero\", {}]", 
        "__wd_mult__": "0.0", 
        "eps": "1e-05", 
        "fix_gamma": "False", 
        "momentum": "0.9"
      }, 
      "inputs": []
    }, 
    {
      "op": "null", 
      "name": "bn_38_moving_var", 
      "attrs": {
        "__init__": "[\"one\", {}]", 
        "__wd_mult__": "0.0", 
        "eps": "1e-05", 
        "fix_gamma": "False", 
        "momentum": "0.9"
      }, 
      "inputs": []
    }, 
    {
      "op": "BatchNorm", 
      "name": "bn_38", 
      "attrs": {
        "__wd_mult__": "0.0", 
        "eps": "1e-05", 
        "fix_gamma": "False", 
        "momentum": "0.9"
      }, 
      "inputs": [[322, 0, 0], [323, 0, 0], [324, 0, 0], [325, 0, 1], [326, 0, 1]]
    }, 
    {
      "op": "LeakyReLU", 
      "name": "leaky_relu_38", 
      "attrs": {
        "act_type": "leaky", 
        "slope": "0.1"
      }, 
      "inputs": [[327, 0, 0]]
    }, 
    {
      "op": "elemwise_add", 
      "name": "_plus74", 
      "inputs": [[328, 0, 0], [312, 0, 0]]
    }, 
    {
      "op": "null", 
      "name": "conv_39_weight", 
      "attrs": {
        "kernel": "(1, 1)", 
        "no_bias": "True", 
        "num_filter": "256", 
        "pad": "(0, 0)", 
        "stride": "(1, 1)"
      }, 
      "inputs": []
    }, 
    {
      "op": "Convolution", 
      "name": "conv_39", 
      "attrs": {
        "kernel": "(1, 1)", 
        "no_bias": "True", 
        "num_filter": "256", 
        "pad": "(0, 0)", 
        "stride": "(1, 1)"
      }, 
      "inputs": [[329, 0, 0], [330, 0, 0]]
    }, 
    {
      "op": "null", 
      "name": "bn_39_gamma", 
      "attrs": {
        "__wd_mult__": "0.0", 
        "eps": "1e-05", 
        "fix_gamma": "False", 
        "momentum": "0.9"
      }, 
      "inputs": []
    }, 
    {
      "op": "null", 
      "name": "bn_39_beta", 
      "attrs": {
        "__wd_mult__": "0.0", 
        "eps": "1e-05", 
        "fix_gamma": "False", 
        "momentum": "0.9"
      }, 
      "inputs": []
    }, 
    {
      "op": "null", 
      "name": "bn_39_moving_mean", 
      "attrs": {
        "__init__": "[\"zero\", {}]", 
        "__wd_mult__": "0.0", 
        "eps": "1e-05", 
        "fix_gamma": "False", 
        "momentum": "0.9"
      }, 
      "inputs": []
    }, 
    {
      "op": "null", 
      "name": "bn_39_moving_var", 
      "attrs": {
        "__init__": "[\"one\", {}]", 
        "__wd_mult__": "0.0", 
        "eps": "1e-05", 
        "fix_gamma": "False", 
        "momentum": "0.9"
      }, 
      "inputs": []
    }, 
    {
      "op": "BatchNorm", 
      "name": "bn_39", 
      "attrs": {
        "__wd_mult__": "0.0", 
        "eps": "1e-05", 
        "fix_gamma": "False", 
        "momentum": "0.9"
      }, 
      "inputs": [[331, 0, 0], [332, 0, 0], [333, 0, 0], [334, 0, 1], [335, 0, 1]]
    }, 
    {
      "op": "LeakyReLU", 
      "name": "leaky_relu_39", 
      "attrs": {
        "act_type": "leaky", 
        "slope": "0.1"
      }, 
      "inputs": [[336, 0, 0]]
    }, 
    {
      "op": "null", 
      "name": "conv_40_weight", 
      "attrs": {
        "kernel": "(3, 3)", 
        "no_bias": "True", 
        "num_filter": "512", 
        "pad": "(1, 1)", 
        "stride": "(1, 1)"
      }, 
      "inputs": []
    }, 
    {
      "op": "Convolution", 
      "name": "conv_40", 
      "attrs": {
        "kernel": "(3, 3)", 
        "no_bias": "True", 
        "num_filter": "512", 
        "pad": "(1, 1)", 
        "stride": "(1, 1)"
      }, 
      "inputs": [[337, 0, 0], [338, 0, 0]]
    }, 
    {
      "op": "null", 
      "name": "bn_40_gamma", 
      "attrs": {
        "__wd_mult__": "0.0", 
        "eps": "1e-05", 
        "fix_gamma": "False", 
        "momentum": "0.9"
      }, 
      "inputs": []
    }, 
    {
      "op": "null", 
      "name": "bn_40_beta", 
      "attrs": {
        "__wd_mult__": "0.0", 
        "eps": "1e-05", 
        "fix_gamma": "False", 
        "momentum": "0.9"
      }, 
      "inputs": []
    }, 
    {
      "op": "null", 
      "name": "bn_40_moving_mean", 
      "attrs": {
        "__init__": "[\"zero\", {}]", 
        "__wd_mult__": "0.0", 
        "eps": "1e-05", 
        "fix_gamma": "False", 
        "momentum": "0.9"
      }, 
      "inputs": []
    }, 
    {
      "op": "null", 
      "name": "bn_40_moving_var", 
      "attrs": {
        "__init__": "[\"one\", {}]", 
        "__wd_mult__": "0.0", 
        "eps": "1e-05", 
        "fix_gamma": "False", 
        "momentum": "0.9"
      }, 
      "inputs": []
    }, 
    {
      "op": "BatchNorm", 
      "name": "bn_40", 
      "attrs": {
        "__wd_mult__": "0.0", 
        "eps": "1e-05", 
        "fix_gamma": "False", 
        "momentum": "0.9"
      }, 
      "inputs": [[339, 0, 0], [340, 0, 0], [341, 0, 0], [342, 0, 1], [343, 0, 1]]
    }, 
    {
      "op": "LeakyReLU", 
      "name": "leaky_relu_40", 
      "attrs": {
        "act_type": "leaky", 
        "slope": "0.1"
      }, 
      "inputs": [[344, 0, 0]]
    }, 
    {
      "op": "elemwise_add", 
      "name": "_plus75", 
      "inputs": [[345, 0, 0], [329, 0, 0]]
    }, 
    {
      "op": "null", 
      "name": "conv_41_weight", 
      "attrs": {
        "kernel": "(1, 1)", 
        "no_bias": "True", 
        "num_filter": "256", 
        "pad": "(0, 0)", 
        "stride": "(1, 1)"
      }, 
      "inputs": []
    }, 
    {
      "op": "Convolution", 
      "name": "conv_41", 
      "attrs": {
        "kernel": "(1, 1)", 
        "no_bias": "True", 
        "num_filter": "256", 
        "pad": "(0, 0)", 
        "stride": "(1, 1)"
      }, 
      "inputs": [[346, 0, 0], [347, 0, 0]]
    }, 
    {
      "op": "null", 
      "name": "bn_41_gamma", 
      "attrs": {
        "__wd_mult__": "0.0", 
        "eps": "1e-05", 
        "fix_gamma": "False", 
        "momentum": "0.9"
      }, 
      "inputs": []
    }, 
    {
      "op": "null", 
      "name": "bn_41_beta", 
      "attrs": {
        "__wd_mult__": "0.0", 
        "eps": "1e-05", 
        "fix_gamma": "False", 
        "momentum": "0.9"
      }, 
      "inputs": []
    }, 
    {
      "op": "null", 
      "name": "bn_41_moving_mean", 
      "attrs": {
        "__init__": "[\"zero\", {}]", 
        "__wd_mult__": "0.0", 
        "eps": "1e-05", 
        "fix_gamma": "False", 
        "momentum": "0.9"
      }, 
      "inputs": []
    }, 
    {
      "op": "null", 
      "name": "bn_41_moving_var", 
      "attrs": {
        "__init__": "[\"one\", {}]", 
        "__wd_mult__": "0.0", 
        "eps": "1e-05", 
        "fix_gamma": "False", 
        "momentum": "0.9"
      }, 
      "inputs": []
    }, 
    {
      "op": "BatchNorm", 
      "name": "bn_41", 
      "attrs": {
        "__wd_mult__": "0.0", 
        "eps": "1e-05", 
        "fix_gamma": "False", 
        "momentum": "0.9"
      }, 
      "inputs": [[348, 0, 0], [349, 0, 0], [350, 0, 0], [351, 0, 1], [352, 0, 1]]
    }, 
    {
      "op": "LeakyReLU", 
      "name": "leaky_relu_41", 
      "attrs": {
        "act_type": "leaky", 
        "slope": "0.1"
      }, 
      "inputs": [[353, 0, 0]]
    }, 
    {
      "op": "null", 
      "name": "conv_42_weight", 
      "attrs": {
        "kernel": "(3, 3)", 
        "no_bias": "True", 
        "num_filter": "512", 
        "pad": "(1, 1)", 
        "stride": "(1, 1)"
      }, 
      "inputs": []
    }, 
    {
      "op": "Convolution", 
      "name": "conv_42", 
      "attrs": {
        "kernel": "(3, 3)", 
        "no_bias": "True", 
        "num_filter": "512", 
        "pad": "(1, 1)", 
        "stride": "(1, 1)"
      }, 
      "inputs": [[354, 0, 0], [355, 0, 0]]
    }, 
    {
      "op": "null", 
      "name": "bn_42_gamma", 
      "attrs": {
        "__wd_mult__": "0.0", 
        "eps": "1e-05", 
        "fix_gamma": "False", 
        "momentum": "0.9"
      }, 
      "inputs": []
    }, 
    {
      "op": "null", 
      "name": "bn_42_beta", 
      "attrs": {
        "__wd_mult__": "0.0", 
        "eps": "1e-05", 
        "fix_gamma": "False", 
        "momentum": "0.9"
      }, 
      "inputs": []
    }, 
    {
      "op": "null", 
      "name": "bn_42_moving_mean", 
      "attrs": {
        "__init__": "[\"zero\", {}]", 
        "__wd_mult__": "0.0", 
        "eps": "1e-05", 
        "fix_gamma": "False", 
        "momentum": "0.9"
      }, 
      "inputs": []
    }, 
    {
      "op": "null", 
      "name": "bn_42_moving_var", 
      "attrs": {
        "__init__": "[\"one\", {}]", 
        "__wd_mult__": "0.0", 
        "eps": "1e-05", 
        "fix_gamma": "False", 
        "momentum": "0.9"
      }, 
      "inputs": []
    }, 
    {
      "op": "BatchNorm", 
      "name": "bn_42", 
      "attrs": {
        "__wd_mult__": "0.0", 
        "eps": "1e-05", 
        "fix_gamma": "False", 
        "momentum": "0.9"
      }, 
      "inputs": [[356, 0, 0], [357, 0, 0], [358, 0, 0], [359, 0, 1], [360, 0, 1]]
    }, 
    {
      "op": "LeakyReLU", 
      "name": "leaky_relu_42", 
      "attrs": {
        "act_type": "leaky", 
        "slope": "0.1"
      }, 
      "inputs": [[361, 0, 0]]
    }, 
    {
      "op": "elemwise_add", 
      "name": "_plus76", 
      "inputs": [[362, 0, 0], [346, 0, 0]]
    }, 
    {
      "op": "null", 
      "name": "conv_43_weight", 
      "attrs": {
        "kernel": "(3, 3)", 
        "no_bias": "True", 
        "num_filter": "1024", 
        "pad": "(1, 1)", 
        "stride": "(2, 2)"
      }, 
      "inputs": []
    }, 
    {
      "op": "Convolution", 
      "name": "conv_43", 
      "attrs": {
        "kernel": "(3, 3)", 
        "no_bias": "True", 
        "num_filter": "1024", 
        "pad": "(1, 1)", 
        "stride": "(2, 2)"
      }, 
      "inputs": [[363, 0, 0], [364, 0, 0]]
    }, 
    {
      "op": "null", 
      "name": "bn_43_gamma", 
      "attrs": {
        "__wd_mult__": "0.0", 
        "eps": "1e-05", 
        "fix_gamma": "False", 
        "momentum": "0.9"
      }, 
      "inputs": []
    }, 
    {
      "op": "null", 
      "name": "bn_43_beta", 
      "attrs": {
        "__wd_mult__": "0.0", 
        "eps": "1e-05", 
        "fix_gamma": "False", 
        "momentum": "0.9"
      }, 
      "inputs": []
    }, 
    {
      "op": "null", 
      "name": "bn_43_moving_mean", 
      "attrs": {
        "__init__": "[\"zero\", {}]", 
        "__wd_mult__": "0.0", 
        "eps": "1e-05", 
        "fix_gamma": "False", 
        "momentum": "0.9"
      }, 
      "inputs": []
    }, 
    {
      "op": "null", 
      "name": "bn_43_moving_var", 
      "attrs": {
        "__init__": "[\"one\", {}]", 
        "__wd_mult__": "0.0", 
        "eps": "1e-05", 
        "fix_gamma": "False", 
        "momentum": "0.9"
      }, 
      "inputs": []
    }, 
    {
      "op": "BatchNorm", 
      "name": "bn_43", 
      "attrs": {
        "__wd_mult__": "0.0", 
        "eps": "1e-05", 
        "fix_gamma": "False", 
        "momentum": "0.9"
      }, 
      "inputs": [[365, 0, 0], [366, 0, 0], [367, 0, 0], [368, 0, 1], [369, 0, 1]]
    }, 
    {
      "op": "LeakyReLU", 
      "name": "leaky_relu_43", 
      "attrs": {
        "act_type": "leaky", 
        "slope": "0.1"
      }, 
      "inputs": [[370, 0, 0]]
    }, 
    {
      "op": "null", 
      "name": "conv_44_weight", 
      "attrs": {
        "kernel": "(1, 1)", 
        "no_bias": "True", 
        "num_filter": "512", 
        "pad": "(0, 0)", 
        "stride": "(1, 1)"
      }, 
      "inputs": []
    }, 
    {
      "op": "Convolution", 
      "name": "conv_44", 
      "attrs": {
        "kernel": "(1, 1)", 
        "no_bias": "True", 
        "num_filter": "512", 
        "pad": "(0, 0)", 
        "stride": "(1, 1)"
      }, 
      "inputs": [[371, 0, 0], [372, 0, 0]]
    }, 
    {
      "op": "null", 
      "name": "bn_44_gamma", 
      "attrs": {
        "__wd_mult__": "0.0", 
        "eps": "1e-05", 
        "fix_gamma": "False", 
        "momentum": "0.9"
      }, 
      "inputs": []
    }, 
    {
      "op": "null", 
      "name": "bn_44_beta", 
      "attrs": {
        "__wd_mult__": "0.0", 
        "eps": "1e-05", 
        "fix_gamma": "False", 
        "momentum": "0.9"
      }, 
      "inputs": []
    }, 
    {
      "op": "null", 
      "name": "bn_44_moving_mean", 
      "attrs": {
        "__init__": "[\"zero\", {}]", 
        "__wd_mult__": "0.0", 
        "eps": "1e-05", 
        "fix_gamma": "False", 
        "momentum": "0.9"
      }, 
      "inputs": []
    }, 
    {
      "op": "null", 
      "name": "bn_44_moving_var", 
      "attrs": {
        "__init__": "[\"one\", {}]", 
        "__wd_mult__": "0.0", 
        "eps": "1e-05", 
        "fix_gamma": "False", 
        "momentum": "0.9"
      }, 
      "inputs": []
    }, 
    {
      "op": "BatchNorm", 
      "name": "bn_44", 
      "attrs": {
        "__wd_mult__": "0.0", 
        "eps": "1e-05", 
        "fix_gamma": "False", 
        "momentum": "0.9"
      }, 
      "inputs": [[373, 0, 0], [374, 0, 0], [375, 0, 0], [376, 0, 1], [377, 0, 1]]
    }, 
    {
      "op": "LeakyReLU", 
      "name": "leaky_relu_44", 
      "attrs": {
        "act_type": "leaky", 
        "slope": "0.1"
      }, 
      "inputs": [[378, 0, 0]]
    }, 
    {
      "op": "null", 
      "name": "conv_45_weight", 
      "attrs": {
        "kernel": "(3, 3)", 
        "no_bias": "True", 
        "num_filter": "1024", 
        "pad": "(1, 1)", 
        "stride": "(1, 1)"
      }, 
      "inputs": []
    }, 
    {
      "op": "Convolution", 
      "name": "conv_45", 
      "attrs": {
        "kernel": "(3, 3)", 
        "no_bias": "True", 
        "num_filter": "1024", 
        "pad": "(1, 1)", 
        "stride": "(1, 1)"
      }, 
      "inputs": [[379, 0, 0], [380, 0, 0]]
    }, 
    {
      "op": "null", 
      "name": "bn_45_gamma", 
      "attrs": {
        "__wd_mult__": "0.0", 
        "eps": "1e-05", 
        "fix_gamma": "False", 
        "momentum": "0.9"
      }, 
      "inputs": []
    }, 
    {
      "op": "null", 
      "name": "bn_45_beta", 
      "attrs": {
        "__wd_mult__": "0.0", 
        "eps": "1e-05", 
        "fix_gamma": "False", 
        "momentum": "0.9"
      }, 
      "inputs": []
    }, 
    {
      "op": "null", 
      "name": "bn_45_moving_mean", 
      "attrs": {
        "__init__": "[\"zero\", {}]", 
        "__wd_mult__": "0.0", 
        "eps": "1e-05", 
        "fix_gamma": "False", 
        "momentum": "0.9"
      }, 
      "inputs": []
    }, 
    {
      "op": "null", 
      "name": "bn_45_moving_var", 
      "attrs": {
        "__init__": "[\"one\", {}]", 
        "__wd_mult__": "0.0", 
        "eps": "1e-05", 
        "fix_gamma": "False", 
        "momentum": "0.9"
      }, 
      "inputs": []
    }, 
    {
      "op": "BatchNorm", 
      "name": "bn_45", 
      "attrs": {
        "__wd_mult__": "0.0", 
        "eps": "1e-05", 
        "fix_gamma": "False", 
        "momentum": "0.9"
      }, 
      "inputs": [[381, 0, 0], [382, 0, 0], [383, 0, 0], [384, 0, 1], [385, 0, 1]]
    }, 
    {
      "op": "LeakyReLU", 
      "name": "leaky_relu_45", 
      "attrs": {
        "act_type": "leaky", 
        "slope": "0.1"
      }, 
      "inputs": [[386, 0, 0]]
    }, 
    {
      "op": "elemwise_add", 
      "name": "_plus77", 
      "inputs": [[387, 0, 0], [371, 0, 0]]
    }, 
    {
      "op": "null", 
      "name": "conv_46_weight", 
      "attrs": {
        "kernel": "(1, 1)", 
        "no_bias": "True", 
        "num_filter": "512", 
        "pad": "(0, 0)", 
        "stride": "(1, 1)"
      }, 
      "inputs": []
    }, 
    {
      "op": "Convolution", 
      "name": "conv_46", 
      "attrs": {
        "kernel": "(1, 1)", 
        "no_bias": "True", 
        "num_filter": "512", 
        "pad": "(0, 0)", 
        "stride": "(1, 1)"
      }, 
      "inputs": [[388, 0, 0], [389, 0, 0]]
    }, 
    {
      "op": "null", 
      "name": "bn_46_gamma", 
      "attrs": {
        "__wd_mult__": "0.0", 
        "eps": "1e-05", 
        "fix_gamma": "False", 
        "momentum": "0.9"
      }, 
      "inputs": []
    }, 
    {
      "op": "null", 
      "name": "bn_46_beta", 
      "attrs": {
        "__wd_mult__": "0.0", 
        "eps": "1e-05", 
        "fix_gamma": "False", 
        "momentum": "0.9"
      }, 
      "inputs": []
    }, 
    {
      "op": "null", 
      "name": "bn_46_moving_mean", 
      "attrs": {
        "__init__": "[\"zero\", {}]", 
        "__wd_mult__": "0.0", 
        "eps": "1e-05", 
        "fix_gamma": "False", 
        "momentum": "0.9"
      }, 
      "inputs": []
    }, 
    {
      "op": "null", 
      "name": "bn_46_moving_var", 
      "attrs": {
        "__init__": "[\"one\", {}]", 
        "__wd_mult__": "0.0", 
        "eps": "1e-05", 
        "fix_gamma": "False", 
        "momentum": "0.9"
      }, 
      "inputs": []
    }, 
    {
      "op": "BatchNorm", 
      "name": "bn_46", 
      "attrs": {
        "__wd_mult__": "0.0", 
        "eps": "1e-05", 
        "fix_gamma": "False", 
        "momentum": "0.9"
      }, 
      "inputs": [[390, 0, 0], [391, 0, 0], [392, 0, 0], [393, 0, 1], [394, 0, 1]]
    }, 
    {
      "op": "LeakyReLU", 
      "name": "leaky_relu_46", 
      "attrs": {
        "act_type": "leaky", 
        "slope": "0.1"
      }, 
      "inputs": [[395, 0, 0]]
    }, 
    {
      "op": "null", 
      "name": "conv_47_weight", 
      "attrs": {
        "kernel": "(3, 3)", 
        "no_bias": "True", 
        "num_filter": "1024", 
        "pad": "(1, 1)", 
        "stride": "(1, 1)"
      }, 
      "inputs": []
    }, 
    {
      "op": "Convolution", 
      "name": "conv_47", 
      "attrs": {
        "kernel": "(3, 3)", 
        "no_bias": "True", 
        "num_filter": "1024", 
        "pad": "(1, 1)", 
        "stride": "(1, 1)"
      }, 
      "inputs": [[396, 0, 0], [397, 0, 0]]
    }, 
    {
      "op": "null", 
      "name": "bn_47_gamma", 
      "attrs": {
        "__wd_mult__": "0.0", 
        "eps": "1e-05", 
        "fix_gamma": "False", 
        "momentum": "0.9"
      }, 
      "inputs": []
    }, 
    {
      "op": "null", 
      "name": "bn_47_beta", 
      "attrs": {
        "__wd_mult__": "0.0", 
        "eps": "1e-05", 
        "fix_gamma": "False", 
        "momentum": "0.9"
      }, 
      "inputs": []
    }, 
    {
      "op": "null", 
      "name": "bn_47_moving_mean", 
      "attrs": {
        "__init__": "[\"zero\", {}]", 
        "__wd_mult__": "0.0", 
        "eps": "1e-05", 
        "fix_gamma": "False", 
        "momentum": "0.9"
      }, 
      "inputs": []
    }, 
    {
      "op": "null", 
      "name": "bn_47_moving_var", 
      "attrs": {
        "__init__": "[\"one\", {}]", 
        "__wd_mult__": "0.0", 
        "eps": "1e-05", 
        "fix_gamma": "False", 
        "momentum": "0.9"
      }, 
      "inputs": []
    }, 
    {
      "op": "BatchNorm", 
      "name": "bn_47", 
      "attrs": {
        "__wd_mult__": "0.0", 
        "eps": "1e-05", 
        "fix_gamma": "False", 
        "momentum": "0.9"
      }, 
      "inputs": [[398, 0, 0], [399, 0, 0], [400, 0, 0], [401, 0, 1], [402, 0, 1]]
    }, 
    {
      "op": "LeakyReLU", 
      "name": "leaky_relu_47", 
      "attrs": {
        "act_type": "leaky", 
        "slope": "0.1"
      }, 
      "inputs": [[403, 0, 0]]
    }, 
    {
      "op": "elemwise_add", 
      "name": "_plus78", 
      "inputs": [[404, 0, 0], [388, 0, 0]]
    }, 
    {
      "op": "null", 
      "name": "conv_48_weight", 
      "attrs": {
        "kernel": "(1, 1)", 
        "no_bias": "True", 
        "num_filter": "512", 
        "pad": "(0, 0)", 
        "stride": "(1, 1)"
      }, 
      "inputs": []
    }, 
    {
      "op": "Convolution", 
      "name": "conv_48", 
      "attrs": {
        "kernel": "(1, 1)", 
        "no_bias": "True", 
        "num_filter": "512", 
        "pad": "(0, 0)", 
        "stride": "(1, 1)"
      }, 
      "inputs": [[405, 0, 0], [406, 0, 0]]
    }, 
    {
      "op": "null", 
      "name": "bn_48_gamma", 
      "attrs": {
        "__wd_mult__": "0.0", 
        "eps": "1e-05", 
        "fix_gamma": "False", 
        "momentum": "0.9"
      }, 
      "inputs": []
    }, 
    {
      "op": "null", 
      "name": "bn_48_beta", 
      "attrs": {
        "__wd_mult__": "0.0", 
        "eps": "1e-05", 
        "fix_gamma": "False", 
        "momentum": "0.9"
      }, 
      "inputs": []
    }, 
    {
      "op": "null", 
      "name": "bn_48_moving_mean", 
      "attrs": {
        "__init__": "[\"zero\", {}]", 
        "__wd_mult__": "0.0", 
        "eps": "1e-05", 
        "fix_gamma": "False", 
        "momentum": "0.9"
      }, 
      "inputs": []
    }, 
    {
      "op": "null", 
      "name": "bn_48_moving_var", 
      "attrs": {
        "__init__": "[\"one\", {}]", 
        "__wd_mult__": "0.0", 
        "eps": "1e-05", 
        "fix_gamma": "False", 
        "momentum": "0.9"
      }, 
      "inputs": []
    }, 
    {
      "op": "BatchNorm", 
      "name": "bn_48", 
      "attrs": {
        "__wd_mult__": "0.0", 
        "eps": "1e-05", 
        "fix_gamma": "False", 
        "momentum": "0.9"
      }, 
      "inputs": [[407, 0, 0], [408, 0, 0], [409, 0, 0], [410, 0, 1], [411, 0, 1]]
    }, 
    {
      "op": "LeakyReLU", 
      "name": "leaky_relu_48", 
      "attrs": {
        "act_type": "leaky", 
        "slope": "0.1"
      }, 
      "inputs": [[412, 0, 0]]
    }, 
    {
      "op": "null", 
      "name": "conv_49_weight", 
      "attrs": {
        "kernel": "(3, 3)", 
        "no_bias": "True", 
        "num_filter": "1024", 
        "pad": "(1, 1)", 
        "stride": "(1, 1)"
      }, 
      "inputs": []
    }, 
    {
      "op": "Convolution", 
      "name": "conv_49", 
      "attrs": {
        "kernel": "(3, 3)", 
        "no_bias": "True", 
        "num_filter": "1024", 
        "pad": "(1, 1)", 
        "stride": "(1, 1)"
      }, 
      "inputs": [[413, 0, 0], [414, 0, 0]]
    }, 
    {
      "op": "null", 
      "name": "bn_49_gamma", 
      "attrs": {
        "__wd_mult__": "0.0", 
        "eps": "1e-05", 
        "fix_gamma": "False", 
        "momentum": "0.9"
      }, 
      "inputs": []
    }, 
    {
      "op": "null", 
      "name": "bn_49_beta", 
      "attrs": {
        "__wd_mult__": "0.0", 
        "eps": "1e-05", 
        "fix_gamma": "False", 
        "momentum": "0.9"
      }, 
      "inputs": []
    }, 
    {
      "op": "null", 
      "name": "bn_49_moving_mean", 
      "attrs": {
        "__init__": "[\"zero\", {}]", 
        "__wd_mult__": "0.0", 
        "eps": "1e-05", 
        "fix_gamma": "False", 
        "momentum": "0.9"
      }, 
      "inputs": []
    }, 
    {
      "op": "null", 
      "name": "bn_49_moving_var", 
      "attrs": {
        "__init__": "[\"one\", {}]", 
        "__wd_mult__": "0.0", 
        "eps": "1e-05", 
        "fix_gamma": "False", 
        "momentum": "0.9"
      }, 
      "inputs": []
    }, 
    {
      "op": "BatchNorm", 
      "name": "bn_49", 
      "attrs": {
        "__wd_mult__": "0.0", 
        "eps": "1e-05", 
        "fix_gamma": "False", 
        "momentum": "0.9"
      }, 
      "inputs": [[415, 0, 0], [416, 0, 0], [417, 0, 0], [418, 0, 1], [419, 0, 1]]
    }, 
    {
      "op": "LeakyReLU", 
      "name": "leaky_relu_49", 
      "attrs": {
        "act_type": "leaky", 
        "slope": "0.1"
      }, 
      "inputs": [[420, 0, 0]]
    }, 
    {
      "op": "elemwise_add", 
      "name": "_plus79", 
      "inputs": [[421, 0, 0], [405, 0, 0]]
    }, 
    {
      "op": "null", 
      "name": "conv_50_weight", 
      "attrs": {
        "kernel": "(1, 1)", 
        "no_bias": "True", 
        "num_filter": "512", 
        "pad": "(0, 0)", 
        "stride": "(1, 1)"
      }, 
      "inputs": []
    }, 
    {
      "op": "Convolution", 
      "name": "conv_50", 
      "attrs": {
        "kernel": "(1, 1)", 
        "no_bias": "True", 
        "num_filter": "512", 
        "pad": "(0, 0)", 
        "stride": "(1, 1)"
      }, 
      "inputs": [[422, 0, 0], [423, 0, 0]]
    }, 
    {
      "op": "null", 
      "name": "bn_50_gamma", 
      "attrs": {
        "__wd_mult__": "0.0", 
        "eps": "1e-05", 
        "fix_gamma": "False", 
        "momentum": "0.9"
      }, 
      "inputs": []
    }, 
    {
      "op": "null", 
      "name": "bn_50_beta", 
      "attrs": {
        "__wd_mult__": "0.0", 
        "eps": "1e-05", 
        "fix_gamma": "False", 
        "momentum": "0.9"
      }, 
      "inputs": []
    }, 
    {
      "op": "null", 
      "name": "bn_50_moving_mean", 
      "attrs": {
        "__init__": "[\"zero\", {}]", 
        "__wd_mult__": "0.0", 
        "eps": "1e-05", 
        "fix_gamma": "False", 
        "momentum": "0.9"
      }, 
      "inputs": []
    }, 
    {
      "op": "null", 
      "name": "bn_50_moving_var", 
      "attrs": {
        "__init__": "[\"one\", {}]", 
        "__wd_mult__": "0.0", 
        "eps": "1e-05", 
        "fix_gamma": "False", 
        "momentum": "0.9"
      }, 
      "inputs": []
    }, 
    {
      "op": "BatchNorm", 
      "name": "bn_50", 
      "attrs": {
        "__wd_mult__": "0.0", 
        "eps": "1e-05", 
        "fix_gamma": "False", 
        "momentum": "0.9"
      }, 
      "inputs": [[424, 0, 0], [425, 0, 0], [426, 0, 0], [427, 0, 1], [428, 0, 1]]
    }, 
    {
      "op": "LeakyReLU", 
      "name": "leaky_relu_50", 
      "attrs": {
        "act_type": "leaky", 
        "slope": "0.1"
      }, 
      "inputs": [[429, 0, 0]]
    }, 
    {
      "op": "null", 
      "name": "conv_51_weight", 
      "attrs": {
        "kernel": "(3, 3)", 
        "no_bias": "True", 
        "num_filter": "1024", 
        "pad": "(1, 1)", 
        "stride": "(1, 1)"
      }, 
      "inputs": []
    }, 
    {
      "op": "Convolution", 
      "name": "conv_51", 
      "attrs": {
        "kernel": "(3, 3)", 
        "no_bias": "True", 
        "num_filter": "1024", 
        "pad": "(1, 1)", 
        "stride": "(1, 1)"
      }, 
      "inputs": [[430, 0, 0], [431, 0, 0]]
    }, 
    {
      "op": "null", 
      "name": "bn_51_gamma", 
      "attrs": {
        "__wd_mult__": "0.0", 
        "eps": "1e-05", 
        "fix_gamma": "False", 
        "momentum": "0.9"
      }, 
      "inputs": []
    }, 
    {
      "op": "null", 
      "name": "bn_51_beta", 
      "attrs": {
        "__wd_mult__": "0.0", 
        "eps": "1e-05", 
        "fix_gamma": "False", 
        "momentum": "0.9"
      }, 
      "inputs": []
    }, 
    {
      "op": "null", 
      "name": "bn_51_moving_mean", 
      "attrs": {
        "__init__": "[\"zero\", {}]", 
        "__wd_mult__": "0.0", 
        "eps": "1e-05", 
        "fix_gamma": "False", 
        "momentum": "0.9"
      }, 
      "inputs": []
    }, 
    {
      "op": "null", 
      "name": "bn_51_moving_var", 
      "attrs": {
        "__init__": "[\"one\", {}]", 
        "__wd_mult__": "0.0", 
        "eps": "1e-05", 
        "fix_gamma": "False", 
        "momentum": "0.9"
      }, 
      "inputs": []
    }, 
    {
      "op": "BatchNorm", 
      "name": "bn_51", 
      "attrs": {
        "__wd_mult__": "0.0", 
        "eps": "1e-05", 
        "fix_gamma": "False", 
        "momentum": "0.9"
      }, 
      "inputs": [[432, 0, 0], [433, 0, 0], [434, 0, 0], [435, 0, 1], [436, 0, 1]]
    }, 
    {
      "op": "LeakyReLU", 
      "name": "leaky_relu_51", 
      "attrs": {
        "act_type": "leaky", 
        "slope": "0.1"
      }, 
      "inputs": [[437, 0, 0]]
    }, 
    {
      "op": "elemwise_add", 
      "name": "_plus80", 
      "inputs": [[438, 0, 0], [422, 0, 0]]
    }, 
    {
      "op": "null", 
      "name": "conv_52_weight", 
      "attrs": {
        "kernel": "(1, 1)", 
        "no_bias": "True", 
        "num_filter": "512", 
        "pad": "(0, 0)", 
        "stride": "(1, 1)"
      }, 
      "inputs": []
    }, 
    {
      "op": "Convolution", 
      "name": "conv_52", 
      "attrs": {
        "kernel": "(1, 1)", 
        "no_bias": "True", 
        "num_filter": "512", 
        "pad": "(0, 0)", 
        "stride": "(1, 1)"
      }, 
      "inputs": [[439, 0, 0], [440, 0, 0]]
    }, 
    {
      "op": "null", 
      "name": "bn_52_gamma", 
      "attrs": {
        "__wd_mult__": "0.0", 
        "eps": "1e-05", 
        "fix_gamma": "False", 
        "momentum": "0.9"
      }, 
      "inputs": []
    }, 
    {
      "op": "null", 
      "name": "bn_52_beta", 
      "attrs": {
        "__wd_mult__": "0.0", 
        "eps": "1e-05", 
        "fix_gamma": "False", 
        "momentum": "0.9"
      }, 
      "inputs": []
    }, 
    {
      "op": "null", 
      "name": "bn_52_moving_mean", 
      "attrs": {
        "__init__": "[\"zero\", {}]", 
        "__wd_mult__": "0.0", 
        "eps": "1e-05", 
        "fix_gamma": "False", 
        "momentum": "0.9"
      }, 
      "inputs": []
    }, 
    {
      "op": "null", 
      "name": "bn_52_moving_var", 
      "attrs": {
        "__init__": "[\"one\", {}]", 
        "__wd_mult__": "0.0", 
        "eps": "1e-05", 
        "fix_gamma": "False", 
        "momentum": "0.9"
      }, 
      "inputs": []
    }, 
    {
      "op": "BatchNorm", 
      "name": "bn_52", 
      "attrs": {
        "__wd_mult__": "0.0", 
        "eps": "1e-05", 
        "fix_gamma": "False", 
        "momentum": "0.9"
      }, 
      "inputs": [[441, 0, 0], [442, 0, 0], [443, 0, 0], [444, 0, 1], [445, 0, 1]]
    }, 
    {
      "op": "LeakyReLU", 
      "name": "leaky_relu_52", 
      "attrs": {
        "act_type": "leaky", 
        "slope": "0.1"
      }, 
      "inputs": [[446, 0, 0]]
    }, 
    {
      "op": "null", 
      "name": "conv_53_weight", 
      "attrs": {
        "kernel": "(3, 3)", 
        "no_bias": "True", 
        "num_filter": "1024", 
        "pad": "(1, 1)", 
        "stride": "(1, 1)"
      }, 
      "inputs": []
    }, 
    {
      "op": "Convolution", 
      "name": "conv_53", 
      "attrs": {
        "kernel": "(3, 3)", 
        "no_bias": "True", 
        "num_filter": "1024", 
        "pad": "(1, 1)", 
        "stride": "(1, 1)"
      }, 
      "inputs": [[447, 0, 0], [448, 0, 0]]
    }, 
    {
      "op": "null", 
      "name": "bn_53_gamma", 
      "attrs": {
        "__wd_mult__": "0.0", 
        "eps": "1e-05", 
        "fix_gamma": "False", 
        "momentum": "0.9"
      }, 
      "inputs": []
    }, 
    {
      "op": "null", 
      "name": "bn_53_beta", 
      "attrs": {
        "__wd_mult__": "0.0", 
        "eps": "1e-05", 
        "fix_gamma": "False", 
        "momentum": "0.9"
      }, 
      "inputs": []
    }, 
    {
      "op": "null", 
      "name": "bn_53_moving_mean", 
      "attrs": {
        "__init__": "[\"zero\", {}]", 
        "__wd_mult__": "0.0", 
        "eps": "1e-05", 
        "fix_gamma": "False", 
        "momentum": "0.9"
      }, 
      "inputs": []
    }, 
    {
      "op": "null", 
      "name": "bn_53_moving_var", 
      "attrs": {
        "__init__": "[\"one\", {}]", 
        "__wd_mult__": "0.0", 
        "eps": "1e-05", 
        "fix_gamma": "False", 
        "momentum": "0.9"
      }, 
      "inputs": []
    }, 
    {
      "op": "BatchNorm", 
      "name": "bn_53", 
      "attrs": {
        "__wd_mult__": "0.0", 
        "eps": "1e-05", 
        "fix_gamma": "False", 
        "momentum": "0.9"
      }, 
      "inputs": [[449, 0, 0], [450, 0, 0], [451, 0, 0], [452, 0, 1], [453, 0, 1]]
    }, 
    {
      "op": "LeakyReLU", 
      "name": "leaky_relu_53", 
      "attrs": {
        "act_type": "leaky", 
        "slope": "0.1"
      }, 
      "inputs": [[454, 0, 0]]
    }, 
    {
      "op": "null", 
      "name": "conv_54_weight", 
      "attrs": {
        "kernel": "(1, 1)", 
        "no_bias": "True", 
        "num_filter": "512", 
        "pad": "(0, 0)", 
        "stride": "(1, 1)"
      }, 
      "inputs": []
    }, 
    {
      "op": "Convolution", 
      "name": "conv_54", 
      "attrs": {
        "kernel": "(1, 1)", 
        "no_bias": "True", 
        "num_filter": "512", 
        "pad": "(0, 0)", 
        "stride": "(1, 1)"
      }, 
      "inputs": [[455, 0, 0], [456, 0, 0]]
    }, 
    {
      "op": "null", 
      "name": "bn_54_gamma", 
      "attrs": {
        "__wd_mult__": "0.0", 
        "eps": "1e-05", 
        "fix_gamma": "False", 
        "momentum": "0.9"
      }, 
      "inputs": []
    }, 
    {
      "op": "null", 
      "name": "bn_54_beta", 
      "attrs": {
        "__wd_mult__": "0.0", 
        "eps": "1e-05", 
        "fix_gamma": "False", 
        "momentum": "0.9"
      }, 
      "inputs": []
    }, 
    {
      "op": "null", 
      "name": "bn_54_moving_mean", 
      "attrs": {
        "__init__": "[\"zero\", {}]", 
        "__wd_mult__": "0.0", 
        "eps": "1e-05", 
        "fix_gamma": "False", 
        "momentum": "0.9"
      }, 
      "inputs": []
    }, 
    {
      "op": "null", 
      "name": "bn_54_moving_var", 
      "attrs": {
        "__init__": "[\"one\", {}]", 
        "__wd_mult__": "0.0", 
        "eps": "1e-05", 
        "fix_gamma": "False", 
        "momentum": "0.9"
      }, 
      "inputs": []
    }, 
    {
      "op": "BatchNorm", 
      "name": "bn_54", 
      "attrs": {
        "__wd_mult__": "0.0", 
        "eps": "1e-05", 
        "fix_gamma": "False", 
        "momentum": "0.9"
      }, 
      "inputs": [[457, 0, 0], [458, 0, 0], [459, 0, 0], [460, 0, 1], [461, 0, 1]]
    }, 
    {
      "op": "LeakyReLU", 
      "name": "leaky_relu_54", 
      "attrs": {
        "act_type": "leaky", 
        "slope": "0.1"
      }, 
      "inputs": [[462, 0, 0]]
    }, 
    {
      "op": "null", 
      "name": "conv_55_weight", 
      "attrs": {
        "kernel": "(3, 3)", 
        "no_bias": "True", 
        "num_filter": "1024", 
        "pad": "(1, 1)", 
        "stride": "(1, 1)"
      }, 
      "inputs": []
    }, 
    {
      "op": "Convolution", 
      "name": "conv_55", 
      "attrs": {
        "kernel": "(3, 3)", 
        "no_bias": "True", 
        "num_filter": "1024", 
        "pad": "(1, 1)", 
        "stride": "(1, 1)"
      }, 
      "inputs": [[463, 0, 0], [464, 0, 0]]
    }, 
    {
      "op": "null", 
      "name": "bn_55_gamma", 
      "attrs": {
        "__wd_mult__": "0.0", 
        "eps": "1e-05", 
        "fix_gamma": "False", 
        "momentum": "0.9"
      }, 
      "inputs": []
    }, 
    {
      "op": "null", 
      "name": "bn_55_beta", 
      "attrs": {
        "__wd_mult__": "0.0", 
        "eps": "1e-05", 
        "fix_gamma": "False", 
        "momentum": "0.9"
      }, 
      "inputs": []
    }, 
    {
      "op": "null", 
      "name": "bn_55_moving_mean", 
      "attrs": {
        "__init__": "[\"zero\", {}]", 
        "__wd_mult__": "0.0", 
        "eps": "1e-05", 
        "fix_gamma": "False", 
        "momentum": "0.9"
      }, 
      "inputs": []
    }, 
    {
      "op": "null", 
      "name": "bn_55_moving_var", 
      "attrs": {
        "__init__": "[\"one\", {}]", 
        "__wd_mult__": "0.0", 
        "eps": "1e-05", 
        "fix_gamma": "False", 
        "momentum": "0.9"
      }, 
      "inputs": []
    }, 
    {
      "op": "BatchNorm", 
      "name": "bn_55", 
      "attrs": {
        "__wd_mult__": "0.0", 
        "eps": "1e-05", 
        "fix_gamma": "False", 
        "momentum": "0.9"
      }, 
      "inputs": [[465, 0, 0], [466, 0, 0], [467, 0, 0], [468, 0, 1], [469, 0, 1]]
    }, 
    {
      "op": "LeakyReLU", 
      "name": "leaky_relu_55", 
      "attrs": {
        "act_type": "leaky", 
        "slope": "0.1"
      }, 
      "inputs": [[470, 0, 0]]
    }, 
    {
      "op": "null", 
      "name": "conv_56_weight", 
      "attrs": {
        "kernel": "(1, 1)", 
        "no_bias": "True", 
        "num_filter": "512", 
        "pad": "(0, 0)", 
        "stride": "(1, 1)"
      }, 
      "inputs": []
    }, 
    {
      "op": "Convolution", 
      "name": "conv_56", 
      "attrs": {
        "kernel": "(1, 1)", 
        "no_bias": "True", 
        "num_filter": "512", 
        "pad": "(0, 0)", 
        "stride": "(1, 1)"
      }, 
      "inputs": [[471, 0, 0], [472, 0, 0]]
    }, 
    {
      "op": "null", 
      "name": "bn_56_gamma", 
      "attrs": {
        "__wd_mult__": "0.0", 
        "eps": "1e-05", 
        "fix_gamma": "False", 
        "momentum": "0.9"
      }, 
      "inputs": []
    }, 
    {
      "op": "null", 
      "name": "bn_56_beta", 
      "attrs": {
        "__wd_mult__": "0.0", 
        "eps": "1e-05", 
        "fix_gamma": "False", 
        "momentum": "0.9"
      }, 
      "inputs": []
    }, 
    {
      "op": "null", 
      "name": "bn_56_moving_mean", 
      "attrs": {
        "__init__": "[\"zero\", {}]", 
        "__wd_mult__": "0.0", 
        "eps": "1e-05", 
        "fix_gamma": "False", 
        "momentum": "0.9"
      }, 
      "inputs": []
    }, 
    {
      "op": "null", 
      "name": "bn_56_moving_var", 
      "attrs": {
        "__init__": "[\"one\", {}]", 
        "__wd_mult__": "0.0", 
        "eps": "1e-05", 
        "fix_gamma": "False", 
        "momentum": "0.9"
      }, 
      "inputs": []
    }, 
    {
      "op": "BatchNorm", 
      "name": "bn_56", 
      "attrs": {
        "__wd_mult__": "0.0", 
        "eps": "1e-05", 
        "fix_gamma": "False", 
        "momentum": "0.9"
      }, 
      "inputs": [[473, 0, 0], [474, 0, 0], [475, 0, 0], [476, 0, 1], [477, 0, 1]]
    }, 
    {
      "op": "LeakyReLU", 
      "name": "leaky_relu_56", 
      "attrs": {
        "act_type": "leaky", 
        "slope": "0.1"
      }, 
      "inputs": [[478, 0, 0]]
    }, 
    {
      "op": "null", 
      "name": "conv_57_weight", 
      "attrs": {
        "kernel": "(3, 3)", 
        "no_bias": "True", 
        "num_filter": "1024", 
        "pad": "(1, 1)", 
        "stride": "(1, 1)"
      }, 
      "inputs": []
    }, 
    {
      "op": "Convolution", 
      "name": "conv_57", 
      "attrs": {
        "kernel": "(3, 3)", 
        "no_bias": "True", 
        "num_filter": "1024", 
        "pad": "(1, 1)", 
        "stride": "(1, 1)"
      }, 
      "inputs": [[479, 0, 0], [480, 0, 0]]
    }, 
    {
      "op": "null", 
      "name": "bn_57_gamma", 
      "attrs": {
        "__wd_mult__": "0.0", 
        "eps": "1e-05", 
        "fix_gamma": "False", 
        "momentum": "0.9"
      }, 
      "inputs": []
    }, 
    {
      "op": "null", 
      "name": "bn_57_beta", 
      "attrs": {
        "__wd_mult__": "0.0", 
        "eps": "1e-05", 
        "fix_gamma": "False", 
        "momentum": "0.9"
      }, 
      "inputs": []
    }, 
    {
      "op": "null", 
      "name": "bn_57_moving_mean", 
      "attrs": {
        "__init__": "[\"zero\", {}]", 
        "__wd_mult__": "0.0", 
        "eps": "1e-05", 
        "fix_gamma": "False", 
        "momentum": "0.9"
      }, 
      "inputs": []
    }, 
    {
      "op": "null", 
      "name": "bn_57_moving_var", 
      "attrs": {
        "__init__": "[\"one\", {}]", 
        "__wd_mult__": "0.0", 
        "eps": "1e-05", 
        "fix_gamma": "False", 
        "momentum": "0.9"
      }, 
      "inputs": []
    }, 
    {
      "op": "BatchNorm", 
      "name": "bn_57", 
      "attrs": {
        "__wd_mult__": "0.0", 
        "eps": "1e-05", 
        "fix_gamma": "False", 
        "momentum": "0.9"
      }, 
      "inputs": [[481, 0, 0], [482, 0, 0], [483, 0, 0], [484, 0, 1], [485, 0, 1]]
    }, 
    {
      "op": "LeakyReLU", 
      "name": "leaky_relu_57", 
      "attrs": {
        "act_type": "leaky", 
        "slope": "0.1"
      }, 
      "inputs": [[486, 0, 0]]
    }, 
    {
      "op": "Cast", 
      "name": "cast6", 
      "attrs": {"dtype": "float32"}, 
      "inputs": [[487, 0, 0]]
    }, 
    {
      "op": "null", 
      "name": "conv_output_0_weight", 
      "attrs": {
        "kernel": "(1, 1)", 
        "no_bias": "True", 
        "num_filter": "18", 
        "pad": "(0, 0)", 
        "stride": "(1, 1)"
      }, 
      "inputs": []
    }, 
    {
      "op": "Convolution", 
      "name": "conv_output_0", 
      "attrs": {
        "kernel": "(1, 1)", 
        "no_bias": "True", 
        "num_filter": "18", 
        "pad": "(0, 0)", 
        "stride": "(1, 1)"
      }, 
      "inputs": [[488, 0, 0], [489, 0, 0]]
    }, 
    {
      "op": "Reshape", 
      "name": "reshape34", 
      "attrs": {"shape": "(0, 18, -1)"}, 
      "inputs": [[490, 0, 0]]
    }, 
    {
      "op": "transpose", 
      "name": "transpose12", 
      "attrs": {"axes": "(0, 2, 1)"}, 
      "inputs": [[491, 0, 0]]
    }, 
    {
      "op": "Reshape", 
      "name": "reshape35", 
      "attrs": {"shape": "(0, -1, 3, 6)"}, 
      "inputs": [[492, 0, 0]]
    }, 
    {
      "op": "slice_axis", 
      "name": "slice_axis35", 
      "attrs": {
        "axis": "-1", 
        "begin": "5", 
        "end": "None"
      }, 
      "inputs": [[493, 0, 0]]
    }, 
    {
      "op": "sigmoid", 
      "name": "sigmoid20", 
      "inputs": [[494, 0, 0]]
    }, 
    {
      "op": "slice_axis", 
      "name": "slice_axis34", 
      "attrs": {
        "axis": "-1", 
        "begin": "4", 
        "end": "5"
      }, 
      "inputs": [[493, 0, 0]]
    }, 
    {
      "op": "sigmoid", 
      "name": "sigmoid19", 
      "inputs": [[496, 0, 0]]
    }, 
    {
      "op": "broadcast_mul", 
      "name": "broadcast_mul19", 
      "inputs": [[495, 0, 0], [497, 0, 0]]
    }, 
    {
      "op": "transpose", 
      "name": "transpose13", 
      "attrs": {"axes": "(3, 0, 1, 2)"}, 
      "inputs": [[498, 0, 0]]
    }, 
    {
      "op": "expand_dims", 
      "name": "expand_dims13", 
      "attrs": {"axis": "-1"}, 
      "inputs": [[499, 0, 0]]
    }, 
    {
      "op": "_mul_scalar", 
      "name": "_mulscalar21", 
      "attrs": {"scalar": "0"}, 
      "inputs": [[500, 0, 0]]
    }, 
    {
      "op": "_arange", 
      "name": "_arange3", 
      "attrs": {
        "dtype": "float32", 
        "repeat": "1", 
        "start": "0", 
        "step": "1.0", 
        "stop": "1"
      }, 
      "inputs": []
    }, 
    {
      "op": "Reshape", 
      "name": "reshape36", 
      "attrs": {"shape": "(0, 1, 1, 1, 1)"}, 
      "inputs": [[502, 0, 0]]
    }, 
    {
      "op": "broadcast_add", 
      "name": "broadcast_add11", 
      "inputs": [[501, 0, 0], [503, 0, 0]]
    }, 
    {
      "op": "slice_axis", 
      "name": "slice_axis32", 
      "attrs": {
        "axis": "-1", 
        "begin": "0", 
        "end": "2"
      }, 
      "inputs": [[493, 0, 0]]
    }, 
    {
      "op": "sigmoid", 
      "name": "sigmoid18", 
      "inputs": [[505, 0, 0]]
    }, 
    {
      "op": "null", 
      "name": "offset_0_weight", 
      "attrs": {
        "__lr_mult__": "0.0", 
        "__shape__": "(1, 169, 1, 2)"
      }, 
      "inputs": []
    }, 
    {
      "op": "broadcast_add", 
      "name": "broadcast_add10", 
      "inputs": [[506, 0, 0], [507, 0, 0]]
    }, 
    {
      "op": "_mul_scalar", 
      "name": "_mulscalar20", 
      "attrs": {"scalar": "32"}, 
      "inputs": [[508, 0, 0]]
    }, 
    {
      "op": "slice_axis", 
      "name": "slice_axis33", 
      "attrs": {
        "axis": "-1", 
        "begin": "2", 
        "end": "4"
      }, 
      "inputs": [[493, 0, 0]]
    }, 
    {
      "op": "exp", 
      "name": "exp6", 
      "inputs": [[510, 0, 0]]
    }, 
    {
      "op": "null", 
      "name": "anchors_0_weight", 
      "attrs": {
        "__lr_mult__": "0.0", 
        "__shape__": "(1, 1, 3, 2)"
      }, 
      "inputs": []
    }, 
    {
      "op": "broadcast_mul", 
      "name": "broadcast_mul18", 
      "inputs": [[511, 0, 0], [512, 0, 0]]
    }, 
    {
      "op": "_div_scalar", 
      "name": "_divscalar6", 
      "attrs": {"scalar": "2.0"}, 
      "inputs": [[513, 0, 0]]
    }, 
    {
      "op": "elemwise_sub", 
      "name": "_minus17", 
      "inputs": [[509, 0, 0], [514, 0, 0]]
    }, 
    {
      "op": "elemwise_add", 
      "name": "_plus81", 
      "inputs": [[509, 0, 0], [514, 0, 0]]
    }, 
    {
      "op": "Concat", 
      "name": "concat21", 
      "attrs": {
        "dim": "-1", 
        "num_args": "2"
      }, 
      "inputs": [[515, 0, 0], [516, 0, 0]]
    }, 
    {
      "op": "tile", 
      "name": "tile7", 
      "attrs": {"reps": "(1, 1, 1, 1, 1)"}, 
      "inputs": [[517, 0, 0]]
    }, 
    {
      "op": "Concat", 
      "name": "concat22", 
      "attrs": {
        "dim": "-1", 
        "num_args": "3"
      }, 
      "inputs": [[504, 0, 0], [500, 0, 0], [518, 0, 0]]
    }, 
    {
      "op": "transpose", 
      "name": "transpose14", 
      "attrs": {"axes": "(1, 0, 2, 3, 4)"}, 
      "inputs": [[519, 0, 0]]
    }, 
    {
      "op": "Reshape", 
      "name": "reshape37", 
      "attrs": {"shape": "(0, -1, 6)"}, 
      "inputs": [[520, 0, 0]]
    }, 
    {
      "op": "null", 
      "name": "conv_58_weight", 
      "attrs": {
        "kernel": "(1, 1)", 
        "no_bias": "True", 
        "num_filter": "256", 
        "pad": "(0, 0)", 
        "stride": "(1, 1)"
      }, 
      "inputs": []
    }, 
    {
      "op": "Convolution", 
      "name": "conv_58", 
      "attrs": {
        "kernel": "(1, 1)", 
        "no_bias": "True", 
        "num_filter": "256", 
        "pad": "(0, 0)", 
        "stride": "(1, 1)"
      }, 
      "inputs": [[479, 0, 0], [522, 0, 0]]
    }, 
    {
      "op": "null", 
      "name": "bn_58_gamma", 
      "attrs": {
        "__wd_mult__": "0.0", 
        "eps": "1e-05", 
        "fix_gamma": "False", 
        "momentum": "0.9"
      }, 
      "inputs": []
    }, 
    {
      "op": "null", 
      "name": "bn_58_beta", 
      "attrs": {
        "__wd_mult__": "0.0", 
        "eps": "1e-05", 
        "fix_gamma": "False", 
        "momentum": "0.9"
      }, 
      "inputs": []
    }, 
    {
      "op": "null", 
      "name": "bn_58_moving_mean", 
      "attrs": {
        "__init__": "[\"zero\", {}]", 
        "__wd_mult__": "0.0", 
        "eps": "1e-05", 
        "fix_gamma": "False", 
        "momentum": "0.9"
      }, 
      "inputs": []
    }, 
    {
      "op": "null", 
      "name": "bn_58_moving_var", 
      "attrs": {
        "__init__": "[\"one\", {}]", 
        "__wd_mult__": "0.0", 
        "eps": "1e-05", 
        "fix_gamma": "False", 
        "momentum": "0.9"
      }, 
      "inputs": []
    }, 
    {
      "op": "BatchNorm", 
      "name": "bn_58", 
      "attrs": {
        "__wd_mult__": "0.0", 
        "eps": "1e-05", 
        "fix_gamma": "False", 
        "momentum": "0.9"
      }, 
      "inputs": [[523, 0, 0], [524, 0, 0], [525, 0, 0], [526, 0, 1], [527, 0, 1]]
    }, 
    {
      "op": "LeakyReLU", 
      "name": "leaky_relu_58", 
      "attrs": {
        "act_type": "leaky", 
        "slope": "0.1"
      }, 
      "inputs": [[528, 0, 0]]
    }, 
    {
      "op": "UpSampling", 
      "name": "upsampling4", 
      "attrs": {
        "num_args": "1", 
        "sample_type": "nearest", 
        "scale": "2"
      }, 
      "inputs": [[529, 0, 0]]
    }, 
    {
      "op": "Concat", 
      "name": "concat19", 
      "attrs": {
        "dim": "1", 
        "num_args": "2"
      }, 
      "inputs": [[530, 0, 0], [363, 0, 0]]
    }, 
    {
      "op": "null", 
      "name": "conv_59_weight", 
      "attrs": {
        "kernel": "(1, 1)", 
        "no_bias": "True", 
        "num_filter": "256", 
        "pad": "(0, 0)", 
        "stride": "(1, 1)"
      }, 
      "inputs": []
    }, 
    {
      "op": "Convolution", 
      "name": "conv_59", 
      "attrs": {
        "kernel": "(1, 1)", 
        "no_bias": "True", 
        "num_filter": "256", 
        "pad": "(0, 0)", 
        "stride": "(1, 1)"
      }, 
      "inputs": [[531, 0, 0], [532, 0, 0]]
    }, 
    {
      "op": "null", 
      "name": "bn_59_gamma", 
      "attrs": {
        "__wd_mult__": "0.0", 
        "eps": "1e-05", 
        "fix_gamma": "False", 
        "momentum": "0.9"
      }, 
      "inputs": []
    }, 
    {
      "op": "null", 
      "name": "bn_59_beta", 
      "attrs": {
        "__wd_mult__": "0.0", 
        "eps": "1e-05", 
        "fix_gamma": "False", 
        "momentum": "0.9"
      }, 
      "inputs": []
    }, 
    {
      "op": "null", 
      "name": "bn_59_moving_mean", 
      "attrs": {
        "__init__": "[\"zero\", {}]", 
        "__wd_mult__": "0.0", 
        "eps": "1e-05", 
        "fix_gamma": "False", 
        "momentum": "0.9"
      }, 
      "inputs": []
    }, 
    {
      "op": "null", 
      "name": "bn_59_moving_var", 
      "attrs": {
        "__init__": "[\"one\", {}]", 
        "__wd_mult__": "0.0", 
        "eps": "1e-05", 
        "fix_gamma": "False", 
        "momentum": "0.9"
      }, 
      "inputs": []
    }, 
    {
      "op": "BatchNorm", 
      "name": "bn_59", 
      "attrs": {
        "__wd_mult__": "0.0", 
        "eps": "1e-05", 
        "fix_gamma": "False", 
        "momentum": "0.9"
      }, 
      "inputs": [[533, 0, 0], [534, 0, 0], [535, 0, 0], [536, 0, 1], [537, 0, 1]]
    }, 
    {
      "op": "LeakyReLU", 
      "name": "leaky_relu_59", 
      "attrs": {
        "act_type": "leaky", 
        "slope": "0.1"
      }, 
      "inputs": [[538, 0, 0]]
    }, 
    {
      "op": "null", 
      "name": "conv_60_weight", 
      "attrs": {
        "kernel": "(3, 3)", 
        "no_bias": "True", 
        "num_filter": "512", 
        "pad": "(1, 1)", 
        "stride": "(1, 1)"
      }, 
      "inputs": []
    }, 
    {
      "op": "Convolution", 
      "name": "conv_60", 
      "attrs": {
        "kernel": "(3, 3)", 
        "no_bias": "True", 
        "num_filter": "512", 
        "pad": "(1, 1)", 
        "stride": "(1, 1)"
      }, 
      "inputs": [[539, 0, 0], [540, 0, 0]]
    }, 
    {
      "op": "null", 
      "name": "bn_60_gamma", 
      "attrs": {
        "__wd_mult__": "0.0", 
        "eps": "1e-05", 
        "fix_gamma": "False", 
        "momentum": "0.9"
      }, 
      "inputs": []
    }, 
    {
      "op": "null", 
      "name": "bn_60_beta", 
      "attrs": {
        "__wd_mult__": "0.0", 
        "eps": "1e-05", 
        "fix_gamma": "False", 
        "momentum": "0.9"
      }, 
      "inputs": []
    }, 
    {
      "op": "null", 
      "name": "bn_60_moving_mean", 
      "attrs": {
        "__init__": "[\"zero\", {}]", 
        "__wd_mult__": "0.0", 
        "eps": "1e-05", 
        "fix_gamma": "False", 
        "momentum": "0.9"
      }, 
      "inputs": []
    }, 
    {
      "op": "null", 
      "name": "bn_60_moving_var", 
      "attrs": {
        "__init__": "[\"one\", {}]", 
        "__wd_mult__": "0.0", 
        "eps": "1e-05", 
        "fix_gamma": "False", 
        "momentum": "0.9"
      }, 
      "inputs": []
    }, 
    {
      "op": "BatchNorm", 
      "name": "bn_60", 
      "attrs": {
        "__wd_mult__": "0.0", 
        "eps": "1e-05", 
        "fix_gamma": "False", 
        "momentum": "0.9"
      }, 
      "inputs": [[541, 0, 0], [542, 0, 0], [543, 0, 0], [544, 0, 1], [545, 0, 1]]
    }, 
    {
      "op": "LeakyReLU", 
      "name": "leaky_relu_60", 
      "attrs": {
        "act_type": "leaky", 
        "slope": "0.1"
      }, 
      "inputs": [[546, 0, 0]]
    }, 
    {
      "op": "null", 
      "name": "conv_61_weight", 
      "attrs": {
        "kernel": "(1, 1)", 
        "no_bias": "True", 
        "num_filter": "256", 
        "pad": "(0, 0)", 
        "stride": "(1, 1)"
      }, 
      "inputs": []
    }, 
    {
      "op": "Convolution", 
      "name": "conv_61", 
      "attrs": {
        "kernel": "(1, 1)", 
        "no_bias": "True", 
        "num_filter": "256", 
        "pad": "(0, 0)", 
        "stride": "(1, 1)"
      }, 
      "inputs": [[547, 0, 0], [548, 0, 0]]
    }, 
    {
      "op": "null", 
      "name": "bn_61_gamma", 
      "attrs": {
        "__wd_mult__": "0.0", 
        "eps": "1e-05", 
        "fix_gamma": "False", 
        "momentum": "0.9"
      }, 
      "inputs": []
    }, 
    {
      "op": "null", 
      "name": "bn_61_beta", 
      "attrs": {
        "__wd_mult__": "0.0", 
        "eps": "1e-05", 
        "fix_gamma": "False", 
        "momentum": "0.9"
      }, 
      "inputs": []
    }, 
    {
      "op": "null", 
      "name": "bn_61_moving_mean", 
      "attrs": {
        "__init__": "[\"zero\", {}]", 
        "__wd_mult__": "0.0", 
        "eps": "1e-05", 
        "fix_gamma": "False", 
        "momentum": "0.9"
      }, 
      "inputs": []
    }, 
    {
      "op": "null", 
      "name": "bn_61_moving_var", 
      "attrs": {
        "__init__": "[\"one\", {}]", 
        "__wd_mult__": "0.0", 
        "eps": "1e-05", 
        "fix_gamma": "False", 
        "momentum": "0.9"
      }, 
      "inputs": []
    }, 
    {
      "op": "BatchNorm", 
      "name": "bn_61", 
      "attrs": {
        "__wd_mult__": "0.0", 
        "eps": "1e-05", 
        "fix_gamma": "False", 
        "momentum": "0.9"
      }, 
      "inputs": [[549, 0, 0], [550, 0, 0], [551, 0, 0], [552, 0, 1], [553, 0, 1]]
    }, 
    {
      "op": "LeakyReLU", 
      "name": "leaky_relu_61", 
      "attrs": {
        "act_type": "leaky", 
        "slope": "0.1"
      }, 
      "inputs": [[554, 0, 0]]
    }, 
    {
      "op": "null", 
      "name": "conv_62_weight", 
      "attrs": {
        "kernel": "(3, 3)", 
        "no_bias": "True", 
        "num_filter": "512", 
        "pad": "(1, 1)", 
        "stride": "(1, 1)"
      }, 
      "inputs": []
    }, 
    {
      "op": "Convolution", 
      "name": "conv_62", 
      "attrs": {
        "kernel": "(3, 3)", 
        "no_bias": "True", 
        "num_filter": "512", 
        "pad": "(1, 1)", 
        "stride": "(1, 1)"
      }, 
      "inputs": [[555, 0, 0], [556, 0, 0]]
    }, 
    {
      "op": "null", 
      "name": "bn_62_gamma", 
      "attrs": {
        "__wd_mult__": "0.0", 
        "eps": "1e-05", 
        "fix_gamma": "False", 
        "momentum": "0.9"
      }, 
      "inputs": []
    }, 
    {
      "op": "null", 
      "name": "bn_62_beta", 
      "attrs": {
        "__wd_mult__": "0.0", 
        "eps": "1e-05", 
        "fix_gamma": "False", 
        "momentum": "0.9"
      }, 
      "inputs": []
    }, 
    {
      "op": "null", 
      "name": "bn_62_moving_mean", 
      "attrs": {
        "__init__": "[\"zero\", {}]", 
        "__wd_mult__": "0.0", 
        "eps": "1e-05", 
        "fix_gamma": "False", 
        "momentum": "0.9"
      }, 
      "inputs": []
    }, 
    {
      "op": "null", 
      "name": "bn_62_moving_var", 
      "attrs": {
        "__init__": "[\"one\", {}]", 
        "__wd_mult__": "0.0", 
        "eps": "1e-05", 
        "fix_gamma": "False", 
        "momentum": "0.9"
      }, 
      "inputs": []
    }, 
    {
      "op": "BatchNorm", 
      "name": "bn_62", 
      "attrs": {
        "__wd_mult__": "0.0", 
        "eps": "1e-05", 
        "fix_gamma": "False", 
        "momentum": "0.9"
      }, 
      "inputs": [[557, 0, 0], [558, 0, 0], [559, 0, 0], [560, 0, 1], [561, 0, 1]]
    }, 
    {
      "op": "LeakyReLU", 
      "name": "leaky_relu_62", 
      "attrs": {
        "act_type": "leaky", 
        "slope": "0.1"
      }, 
      "inputs": [[562, 0, 0]]
    }, 
    {
      "op": "null", 
      "name": "conv_63_weight", 
      "attrs": {
        "kernel": "(1, 1)", 
        "no_bias": "True", 
        "num_filter": "256", 
        "pad": "(0, 0)", 
        "stride": "(1, 1)"
      }, 
      "inputs": []
    }, 
    {
      "op": "Convolution", 
      "name": "conv_63", 
      "attrs": {
        "kernel": "(1, 1)", 
        "no_bias": "True", 
        "num_filter": "256", 
        "pad": "(0, 0)", 
        "stride": "(1, 1)"
      }, 
      "inputs": [[563, 0, 0], [564, 0, 0]]
    }, 
    {
      "op": "null", 
      "name": "bn_63_gamma", 
      "attrs": {
        "__wd_mult__": "0.0", 
        "eps": "1e-05", 
        "fix_gamma": "False", 
        "momentum": "0.9"
      }, 
      "inputs": []
    }, 
    {
      "op": "null", 
      "name": "bn_63_beta", 
      "attrs": {
        "__wd_mult__": "0.0", 
        "eps": "1e-05", 
        "fix_gamma": "False", 
        "momentum": "0.9"
      }, 
      "inputs": []
    }, 
    {
      "op": "null", 
      "name": "bn_63_moving_mean", 
      "attrs": {
        "__init__": "[\"zero\", {}]", 
        "__wd_mult__": "0.0", 
        "eps": "1e-05", 
        "fix_gamma": "False", 
        "momentum": "0.9"
      }, 
      "inputs": []
    }, 
    {
      "op": "null", 
      "name": "bn_63_moving_var", 
      "attrs": {
        "__init__": "[\"one\", {}]", 
        "__wd_mult__": "0.0", 
        "eps": "1e-05", 
        "fix_gamma": "False", 
        "momentum": "0.9"
      }, 
      "inputs": []
    }, 
    {
      "op": "BatchNorm", 
      "name": "bn_63", 
      "attrs": {
        "__wd_mult__": "0.0", 
        "eps": "1e-05", 
        "fix_gamma": "False", 
        "momentum": "0.9"
      }, 
      "inputs": [[565, 0, 0], [566, 0, 0], [567, 0, 0], [568, 0, 1], [569, 0, 1]]
    }, 
    {
      "op": "LeakyReLU", 
      "name": "leaky_relu_63", 
      "attrs": {
        "act_type": "leaky", 
        "slope": "0.1"
      }, 
      "inputs": [[570, 0, 0]]
    }, 
    {
      "op": "null", 
      "name": "conv_64_weight", 
      "attrs": {
        "kernel": "(3, 3)", 
        "no_bias": "True", 
        "num_filter": "512", 
        "pad": "(1, 1)", 
        "stride": "(1, 1)"
      }, 
      "inputs": []
    }, 
    {
      "op": "Convolution", 
      "name": "conv_64", 
      "attrs": {
        "kernel": "(3, 3)", 
        "no_bias": "True", 
        "num_filter": "512", 
        "pad": "(1, 1)", 
        "stride": "(1, 1)"
      }, 
      "inputs": [[571, 0, 0], [572, 0, 0]]
    }, 
    {
      "op": "null", 
      "name": "bn_64_gamma", 
      "attrs": {
        "__wd_mult__": "0.0", 
        "eps": "1e-05", 
        "fix_gamma": "False", 
        "momentum": "0.9"
      }, 
      "inputs": []
    }, 
    {
      "op": "null", 
      "name": "bn_64_beta", 
      "attrs": {
        "__wd_mult__": "0.0", 
        "eps": "1e-05", 
        "fix_gamma": "False", 
        "momentum": "0.9"
      }, 
      "inputs": []
    }, 
    {
      "op": "null", 
      "name": "bn_64_moving_mean", 
      "attrs": {
        "__init__": "[\"zero\", {}]", 
        "__wd_mult__": "0.0", 
        "eps": "1e-05", 
        "fix_gamma": "False", 
        "momentum": "0.9"
      }, 
      "inputs": []
    }, 
    {
      "op": "null", 
      "name": "bn_64_moving_var", 
      "attrs": {
        "__init__": "[\"one\", {}]", 
        "__wd_mult__": "0.0", 
        "eps": "1e-05", 
        "fix_gamma": "False", 
        "momentum": "0.9"
      }, 
      "inputs": []
    }, 
    {
      "op": "BatchNorm", 
      "name": "bn_64", 
      "attrs": {
        "__wd_mult__": "0.0", 
        "eps": "1e-05", 
        "fix_gamma": "False", 
        "momentum": "0.9"
      }, 
      "inputs": [[573, 0, 0], [574, 0, 0], [575, 0, 0], [576, 0, 1], [577, 0, 1]]
    }, 
    {
      "op": "LeakyReLU", 
      "name": "leaky_relu_64", 
      "attrs": {
        "act_type": "leaky", 
        "slope": "0.1"
      }, 
      "inputs": [[578, 0, 0]]
    }, 
    {
      "op": "Cast", 
      "name": "cast7", 
      "attrs": {"dtype": "float32"}, 
      "inputs": [[579, 0, 0]]
    }, 
    {
      "op": "null", 
      "name": "conv_output_1_weight", 
      "attrs": {
        "kernel": "(1, 1)", 
        "no_bias": "True", 
        "num_filter": "18", 
        "pad": "(0, 0)", 
        "stride": "(1, 1)"
      }, 
      "inputs": []
    }, 
    {
      "op": "Convolution", 
      "name": "conv_output_1", 
      "attrs": {
        "kernel": "(1, 1)", 
        "no_bias": "True", 
        "num_filter": "18", 
        "pad": "(0, 0)", 
        "stride": "(1, 1)"
      }, 
      "inputs": [[580, 0, 0], [581, 0, 0]]
    }, 
    {
      "op": "Reshape", 
      "name": "reshape38", 
      "attrs": {"shape": "(0, 18, -1)"}, 
      "inputs": [[582, 0, 0]]
    }, 
    {
      "op": "transpose", 
      "name": "transpose15", 
      "attrs": {"axes": "(0, 2, 1)"}, 
      "inputs": [[583, 0, 0]]
    }, 
    {
      "op": "Reshape", 
      "name": "reshape39", 
      "attrs": {"shape": "(0, -1, 3, 6)"}, 
      "inputs": [[584, 0, 0]]
    }, 
    {
      "op": "slice_axis", 
      "name": "slice_axis39", 
      "attrs": {
        "axis": "-1", 
        "begin": "5", 
        "end": "None"
      }, 
      "inputs": [[585, 0, 0]]
    }, 
    {
      "op": "sigmoid", 
      "name": "sigmoid23", 
      "inputs": [[586, 0, 0]]
    }, 
    {
      "op": "slice_axis", 
      "name": "slice_axis38", 
      "attrs": {
        "axis": "-1", 
        "begin": "4", 
        "end": "5"
      }, 
      "inputs": [[585, 0, 0]]
    }, 
    {
      "op": "sigmoid", 
      "name": "sigmoid22", 
      "inputs": [[588, 0, 0]]
    }, 
    {
      "op": "broadcast_mul", 
      "name": "broadcast_mul21", 
      "inputs": [[587, 0, 0], [589, 0, 0]]
    }, 
    {
      "op": "transpose", 
      "name": "transpose16", 
      "attrs": {"axes": "(3, 0, 1, 2)"}, 
      "inputs": [[590, 0, 0]]
    }, 
    {
      "op": "expand_dims", 
      "name": "expand_dims14", 
      "attrs": {"axis": "-1"}, 
      "inputs": [[591, 0, 0]]
    }, 
    {
      "op": "_mul_scalar", 
      "name": "_mulscalar23", 
      "attrs": {"scalar": "0"}, 
      "inputs": [[592, 0, 0]]
    }, 
    {
      "op": "_arange", 
      "name": "_arange4", 
      "attrs": {
        "dtype": "float32", 
        "repeat": "1", 
        "start": "0", 
        "step": "1.0", 
        "stop": "1"
      }, 
      "inputs": []
    }, 
    {
      "op": "Reshape", 
      "name": "reshape40", 
      "attrs": {"shape": "(0, 1, 1, 1, 1)"}, 
      "inputs": [[594, 0, 0]]
    }, 
    {
      "op": "broadcast_add", 
      "name": "broadcast_add13", 
      "inputs": [[593, 0, 0], [595, 0, 0]]
    }, 
    {
      "op": "slice_axis", 
      "name": "slice_axis36", 
      "attrs": {
        "axis": "-1", 
        "begin": "0", 
        "end": "2"
      }, 
      "inputs": [[585, 0, 0]]
    }, 
    {
      "op": "sigmoid", 
      "name": "sigmoid21", 
      "inputs": [[597, 0, 0]]
    }, 
    {
      "op": "null", 
      "name": "offset_1_weight", 
      "attrs": {
        "__lr_mult__": "0.0", 
        "__shape__": "(1, 676, 1, 2)"
      }, 
      "inputs": []
    }, 
    {
      "op": "broadcast_add", 
      "name": "broadcast_add12", 
      "inputs": [[598, 0, 0], [599, 0, 0]]
    }, 
    {
      "op": "_mul_scalar", 
      "name": "_mulscalar22", 
      "attrs": {"scalar": "16"}, 
      "inputs": [[600, 0, 0]]
    }, 
    {
      "op": "slice_axis", 
      "name": "slice_axis37", 
      "attrs": {
        "axis": "-1", 
        "begin": "2", 
        "end": "4"
      }, 
      "inputs": [[585, 0, 0]]
    }, 
    {
      "op": "exp", 
      "name": "exp7", 
      "inputs": [[602, 0, 0]]
    }, 
    {
      "op": "null", 
      "name": "anchors_1_weight", 
      "attrs": {
        "__lr_mult__": "0.0", 
        "__shape__": "(1, 1, 3, 2)"
      }, 
      "inputs": []
    }, 
    {
      "op": "broadcast_mul", 
      "name": "broadcast_mul20", 
      "inputs": [[603, 0, 0], [604, 0, 0]]
    }, 
    {
      "op": "_div_scalar", 
      "name": "_divscalar7", 
      "attrs": {"scalar": "2.0"}, 
      "inputs": [[605, 0, 0]]
    }, 
    {
      "op": "elemwise_sub", 
      "name": "_minus18", 
      "inputs": [[601, 0, 0], [606, 0, 0]]
    }, 
    {
      "op": "elemwise_add", 
      "name": "_plus82", 
      "inputs": [[601, 0, 0], [606, 0, 0]]
    }, 
    {
      "op": "Concat", 
      "name": "concat23", 
      "attrs": {
        "dim": "-1", 
        "num_args": "2"
      }, 
      "inputs": [[607, 0, 0], [608, 0, 0]]
    }, 
    {
      "op": "tile", 
      "name": "tile8", 
      "attrs": {"reps": "(1, 1, 1, 1, 1)"}, 
      "inputs": [[609, 0, 0]]
    }, 
    {
      "op": "Concat", 
      "name": "concat24", 
      "attrs": {
        "dim": "-1", 
        "num_args": "3"
      }, 
      "inputs": [[596, 0, 0], [592, 0, 0], [610, 0, 0]]
    }, 
    {
      "op": "transpose", 
      "name": "transpose17", 
      "attrs": {"axes": "(1, 0, 2, 3, 4)"}, 
      "inputs": [[611, 0, 0]]
    }, 
    {
      "op": "Reshape", 
      "name": "reshape41", 
      "attrs": {"shape": "(0, -1, 6)"}, 
      "inputs": [[612, 0, 0]]
    }, 
    {
      "op": "null", 
      "name": "conv_65_weight", 
      "attrs": {
        "kernel": "(1, 1)", 
        "no_bias": "True", 
        "num_filter": "128", 
        "pad": "(0, 0)", 
        "stride": "(1, 1)"
      }, 
      "inputs": []
    }, 
    {
      "op": "Convolution", 
      "name": "conv_65", 
      "attrs": {
        "kernel": "(1, 1)", 
        "no_bias": "True", 
        "num_filter": "128", 
        "pad": "(0, 0)", 
        "stride": "(1, 1)"
      }, 
      "inputs": [[571, 0, 0], [614, 0, 0]]
    }, 
    {
      "op": "null", 
      "name": "bn_65_gamma", 
      "attrs": {
        "__wd_mult__": "0.0", 
        "eps": "1e-05", 
        "fix_gamma": "False", 
        "momentum": "0.9"
      }, 
      "inputs": []
    }, 
    {
      "op": "null", 
      "name": "bn_65_beta", 
      "attrs": {
        "__wd_mult__": "0.0", 
        "eps": "1e-05", 
        "fix_gamma": "False", 
        "momentum": "0.9"
      }, 
      "inputs": []
    }, 
    {
      "op": "null", 
      "name": "bn_65_moving_mean", 
      "attrs": {
        "__init__": "[\"zero\", {}]", 
        "__wd_mult__": "0.0", 
        "eps": "1e-05", 
        "fix_gamma": "False", 
        "momentum": "0.9"
      }, 
      "inputs": []
    }, 
    {
      "op": "null", 
      "name": "bn_65_moving_var", 
      "attrs": {
        "__init__": "[\"one\", {}]", 
        "__wd_mult__": "0.0", 
        "eps": "1e-05", 
        "fix_gamma": "False", 
        "momentum": "0.9"
      }, 
      "inputs": []
    }, 
    {
      "op": "BatchNorm", 
      "name": "bn_65", 
      "attrs": {
        "__wd_mult__": "0.0", 
        "eps": "1e-05", 
        "fix_gamma": "False", 
        "momentum": "0.9"
      }, 
      "inputs": [[615, 0, 0], [616, 0, 0], [617, 0, 0], [618, 0, 1], [619, 0, 1]]
    }, 
    {
      "op": "LeakyReLU", 
      "name": "leaky_relu_65", 
      "attrs": {
        "act_type": "leaky", 
        "slope": "0.1"
      }, 
      "inputs": [[620, 0, 0]]
    }, 
    {
      "op": "UpSampling", 
      "name": "upsampling5", 
      "attrs": {
        "num_args": "1", 
        "sample_type": "nearest", 
        "scale": "2"
      }, 
      "inputs": [[621, 0, 0]]
    }, 
    {
      "op": "Concat", 
      "name": "concat20", 
      "attrs": {
        "dim": "1", 
        "num_args": "2"
      }, 
      "inputs": [[622, 0, 0], [219, 0, 0]]
    }, 
    {
      "op": "null", 
      "name": "conv_66_weight", 
      "attrs": {
        "kernel": "(1, 1)", 
        "no_bias": "True", 
        "num_filter": "128", 
        "pad": "(0, 0)", 
        "stride": "(1, 1)"
      }, 
      "inputs": []
    }, 
    {
      "op": "Convolution", 
      "name": "conv_66", 
      "attrs": {
        "kernel": "(1, 1)", 
        "no_bias": "True", 
        "num_filter": "128", 
        "pad": "(0, 0)", 
        "stride": "(1, 1)"
      }, 
      "inputs": [[623, 0, 0], [624, 0, 0]]
    }, 
    {
      "op": "null", 
      "name": "bn_66_gamma", 
      "attrs": {
        "__wd_mult__": "0.0", 
        "eps": "1e-05", 
        "fix_gamma": "False", 
        "momentum": "0.9"
      }, 
      "inputs": []
    }, 
    {
      "op": "null", 
      "name": "bn_66_beta", 
      "attrs": {
        "__wd_mult__": "0.0", 
        "eps": "1e-05", 
        "fix_gamma": "False", 
        "momentum": "0.9"
      }, 
      "inputs": []
    }, 
    {
      "op": "null", 
      "name": "bn_66_moving_mean", 
      "attrs": {
        "__init__": "[\"zero\", {}]", 
        "__wd_mult__": "0.0", 
        "eps": "1e-05", 
        "fix_gamma": "False", 
        "momentum": "0.9"
      }, 
      "inputs": []
    }, 
    {
      "op": "null", 
      "name": "bn_66_moving_var", 
      "attrs": {
        "__init__": "[\"one\", {}]", 
        "__wd_mult__": "0.0", 
        "eps": "1e-05", 
        "fix_gamma": "False", 
        "momentum": "0.9"
      }, 
      "inputs": []
    }, 
    {
      "op": "BatchNorm", 
      "name": "bn_66", 
      "attrs": {
        "__wd_mult__": "0.0", 
        "eps": "1e-05", 
        "fix_gamma": "False", 
        "momentum": "0.9"
      }, 
      "inputs": [[625, 0, 0], [626, 0, 0], [627, 0, 0], [628, 0, 1], [629, 0, 1]]
    }, 
    {
      "op": "LeakyReLU", 
      "name": "leaky_relu_66", 
      "attrs": {
        "act_type": "leaky", 
        "slope": "0.1"
      }, 
      "inputs": [[630, 0, 0]]
    }, 
    {
      "op": "null", 
      "name": "conv_67_weight", 
      "attrs": {
        "kernel": "(3, 3)", 
        "no_bias": "True", 
        "num_filter": "256", 
        "pad": "(1, 1)", 
        "stride": "(1, 1)"
      }, 
      "inputs": []
    }, 
    {
      "op": "Convolution", 
      "name": "conv_67", 
      "attrs": {
        "kernel": "(3, 3)", 
        "no_bias": "True", 
        "num_filter": "256", 
        "pad": "(1, 1)", 
        "stride": "(1, 1)"
      }, 
      "inputs": [[631, 0, 0], [632, 0, 0]]
    }, 
    {
      "op": "null", 
      "name": "bn_67_gamma", 
      "attrs": {
        "__wd_mult__": "0.0", 
        "eps": "1e-05", 
        "fix_gamma": "False", 
        "momentum": "0.9"
      }, 
      "inputs": []
    }, 
    {
      "op": "null", 
      "name": "bn_67_beta", 
      "attrs": {
        "__wd_mult__": "0.0", 
        "eps": "1e-05", 
        "fix_gamma": "False", 
        "momentum": "0.9"
      }, 
      "inputs": []
    }, 
    {
      "op": "null", 
      "name": "bn_67_moving_mean", 
      "attrs": {
        "__init__": "[\"zero\", {}]", 
        "__wd_mult__": "0.0", 
        "eps": "1e-05", 
        "fix_gamma": "False", 
        "momentum": "0.9"
      }, 
      "inputs": []
    }, 
    {
      "op": "null", 
      "name": "bn_67_moving_var", 
      "attrs": {
        "__init__": "[\"one\", {}]", 
        "__wd_mult__": "0.0", 
        "eps": "1e-05", 
        "fix_gamma": "False", 
        "momentum": "0.9"
      }, 
      "inputs": []
    }, 
    {
      "op": "BatchNorm", 
      "name": "bn_67", 
      "attrs": {
        "__wd_mult__": "0.0", 
        "eps": "1e-05", 
        "fix_gamma": "False", 
        "momentum": "0.9"
      }, 
      "inputs": [[633, 0, 0], [634, 0, 0], [635, 0, 0], [636, 0, 1], [637, 0, 1]]
    }, 
    {
      "op": "LeakyReLU", 
      "name": "leaky_relu_67", 
      "attrs": {
        "act_type": "leaky", 
        "slope": "0.1"
      }, 
      "inputs": [[638, 0, 0]]
    }, 
    {
      "op": "null", 
      "name": "conv_68_weight", 
      "attrs": {
        "kernel": "(1, 1)", 
        "no_bias": "True", 
        "num_filter": "128", 
        "pad": "(0, 0)", 
        "stride": "(1, 1)"
      }, 
      "inputs": []
    }, 
    {
      "op": "Convolution", 
      "name": "conv_68", 
      "attrs": {
        "kernel": "(1, 1)", 
        "no_bias": "True", 
        "num_filter": "128", 
        "pad": "(0, 0)", 
        "stride": "(1, 1)"
      }, 
      "inputs": [[639, 0, 0], [640, 0, 0]]
    }, 
    {
      "op": "null", 
      "name": "bn_68_gamma", 
      "attrs": {
        "__wd_mult__": "0.0", 
        "eps": "1e-05", 
        "fix_gamma": "False", 
        "momentum": "0.9"
      }, 
      "inputs": []
    }, 
    {
      "op": "null", 
      "name": "bn_68_beta", 
      "attrs": {
        "__wd_mult__": "0.0", 
        "eps": "1e-05", 
        "fix_gamma": "False", 
        "momentum": "0.9"
      }, 
      "inputs": []
    }, 
    {
      "op": "null", 
      "name": "bn_68_moving_mean", 
      "attrs": {
        "__init__": "[\"zero\", {}]", 
        "__wd_mult__": "0.0", 
        "eps": "1e-05", 
        "fix_gamma": "False", 
        "momentum": "0.9"
      }, 
      "inputs": []
    }, 
    {
      "op": "null", 
      "name": "bn_68_moving_var", 
      "attrs": {
        "__init__": "[\"one\", {}]", 
        "__wd_mult__": "0.0", 
        "eps": "1e-05", 
        "fix_gamma": "False", 
        "momentum": "0.9"
      }, 
      "inputs": []
    }, 
    {
      "op": "BatchNorm", 
      "name": "bn_68", 
      "attrs": {
        "__wd_mult__": "0.0", 
        "eps": "1e-05", 
        "fix_gamma": "False", 
        "momentum": "0.9"
      }, 
      "inputs": [[641, 0, 0], [642, 0, 0], [643, 0, 0], [644, 0, 1], [645, 0, 1]]
    }, 
    {
      "op": "LeakyReLU", 
      "name": "leaky_relu_68", 
      "attrs": {
        "act_type": "leaky", 
        "slope": "0.1"
      }, 
      "inputs": [[646, 0, 0]]
    }, 
    {
      "op": "null", 
      "name": "conv_69_weight", 
      "attrs": {
        "kernel": "(3, 3)", 
        "no_bias": "True", 
        "num_filter": "256", 
        "pad": "(1, 1)", 
        "stride": "(1, 1)"
      }, 
      "inputs": []
    }, 
    {
      "op": "Convolution", 
      "name": "conv_69", 
      "attrs": {
        "kernel": "(3, 3)", 
        "no_bias": "True", 
        "num_filter": "256", 
        "pad": "(1, 1)", 
        "stride": "(1, 1)"
      }, 
      "inputs": [[647, 0, 0], [648, 0, 0]]
    }, 
    {
      "op": "null", 
      "name": "bn_69_gamma", 
      "attrs": {
        "__wd_mult__": "0.0", 
        "eps": "1e-05", 
        "fix_gamma": "False", 
        "momentum": "0.9"
      }, 
      "inputs": []
    }, 
    {
      "op": "null", 
      "name": "bn_69_beta", 
      "attrs": {
        "__wd_mult__": "0.0", 
        "eps": "1e-05", 
        "fix_gamma": "False", 
        "momentum": "0.9"
      }, 
      "inputs": []
    }, 
    {
      "op": "null", 
      "name": "bn_69_moving_mean", 
      "attrs": {
        "__init__": "[\"zero\", {}]", 
        "__wd_mult__": "0.0", 
        "eps": "1e-05", 
        "fix_gamma": "False", 
        "momentum": "0.9"
      }, 
      "inputs": []
    }, 
    {
      "op": "null", 
      "name": "bn_69_moving_var", 
      "attrs": {
        "__init__": "[\"one\", {}]", 
        "__wd_mult__": "0.0", 
        "eps": "1e-05", 
        "fix_gamma": "False", 
        "momentum": "0.9"
      }, 
      "inputs": []
    }, 
    {
      "op": "BatchNorm", 
      "name": "bn_69", 
      "attrs": {
        "__wd_mult__": "0.0", 
        "eps": "1e-05", 
        "fix_gamma": "False", 
        "momentum": "0.9"
      }, 
      "inputs": [[649, 0, 0], [650, 0, 0], [651, 0, 0], [652, 0, 1], [653, 0, 1]]
    }, 
    {
      "op": "LeakyReLU", 
      "name": "leaky_relu_69", 
      "attrs": {
        "act_type": "leaky", 
        "slope": "0.1"
      }, 
      "inputs": [[654, 0, 0]]
    }, 
    {
      "op": "null", 
      "name": "conv_70_weight", 
      "attrs": {
        "kernel": "(1, 1)", 
        "no_bias": "True", 
        "num_filter": "128", 
        "pad": "(0, 0)", 
        "stride": "(1, 1)"
      }, 
      "inputs": []
    }, 
    {
      "op": "Convolution", 
      "name": "conv_70", 
      "attrs": {
        "kernel": "(1, 1)", 
        "no_bias": "True", 
        "num_filter": "128", 
        "pad": "(0, 0)", 
        "stride": "(1, 1)"
      }, 
      "inputs": [[655, 0, 0], [656, 0, 0]]
    }, 
    {
      "op": "null", 
      "name": "bn_70_gamma", 
      "attrs": {
        "__wd_mult__": "0.0", 
        "eps": "1e-05", 
        "fix_gamma": "False", 
        "momentum": "0.9"
      }, 
      "inputs": []
    }, 
    {
      "op": "null", 
      "name": "bn_70_beta", 
      "attrs": {
        "__wd_mult__": "0.0", 
        "eps": "1e-05", 
        "fix_gamma": "False", 
        "momentum": "0.9"
      }, 
      "inputs": []
    }, 
    {
      "op": "null", 
      "name": "bn_70_moving_mean", 
      "attrs": {
        "__init__": "[\"zero\", {}]", 
        "__wd_mult__": "0.0", 
        "eps": "1e-05", 
        "fix_gamma": "False", 
        "momentum": "0.9"
      }, 
      "inputs": []
    }, 
    {
      "op": "null", 
      "name": "bn_70_moving_var", 
      "attrs": {
        "__init__": "[\"one\", {}]", 
        "__wd_mult__": "0.0", 
        "eps": "1e-05", 
        "fix_gamma": "False", 
        "momentum": "0.9"
      }, 
      "inputs": []
    }, 
    {
      "op": "BatchNorm", 
      "name": "bn_70", 
      "attrs": {
        "__wd_mult__": "0.0", 
        "eps": "1e-05", 
        "fix_gamma": "False", 
        "momentum": "0.9"
      }, 
      "inputs": [[657, 0, 0], [658, 0, 0], [659, 0, 0], [660, 0, 1], [661, 0, 1]]
    }, 
    {
      "op": "LeakyReLU", 
      "name": "leaky_relu_70", 
      "attrs": {
        "act_type": "leaky", 
        "slope": "0.1"
      }, 
      "inputs": [[662, 0, 0]]
    }, 
    {
      "op": "null", 
      "name": "conv_71_weight", 
      "attrs": {
        "kernel": "(3, 3)", 
        "no_bias": "True", 
        "num_filter": "256", 
        "pad": "(1, 1)", 
        "stride": "(1, 1)"
      }, 
      "inputs": []
    }, 
    {
      "op": "Convolution", 
      "name": "conv_71", 
      "attrs": {
        "kernel": "(3, 3)", 
        "no_bias": "True", 
        "num_filter": "256", 
        "pad": "(1, 1)", 
        "stride": "(1, 1)"
      }, 
      "inputs": [[663, 0, 0], [664, 0, 0]]
    }, 
    {
      "op": "null", 
      "name": "bn_71_gamma", 
      "attrs": {
        "__wd_mult__": "0.0", 
        "eps": "1e-05", 
        "fix_gamma": "False", 
        "momentum": "0.9"
      }, 
      "inputs": []
    }, 
    {
      "op": "null", 
      "name": "bn_71_beta", 
      "attrs": {
        "__wd_mult__": "0.0", 
        "eps": "1e-05", 
        "fix_gamma": "False", 
        "momentum": "0.9"
      }, 
      "inputs": []
    }, 
    {
      "op": "null", 
      "name": "bn_71_moving_mean", 
      "attrs": {
        "__init__": "[\"zero\", {}]", 
        "__wd_mult__": "0.0", 
        "eps": "1e-05", 
        "fix_gamma": "False", 
        "momentum": "0.9"
      }, 
      "inputs": []
    }, 
    {
      "op": "null", 
      "name": "bn_71_moving_var", 
      "attrs": {
        "__init__": "[\"one\", {}]", 
        "__wd_mult__": "0.0", 
        "eps": "1e-05", 
        "fix_gamma": "False", 
        "momentum": "0.9"
      }, 
      "inputs": []
    }, 
    {
      "op": "BatchNorm", 
      "name": "bn_71", 
      "attrs": {
        "__wd_mult__": "0.0", 
        "eps": "1e-05", 
        "fix_gamma": "False", 
        "momentum": "0.9"
      }, 
      "inputs": [[665, 0, 0], [666, 0, 0], [667, 0, 0], [668, 0, 1], [669, 0, 1]]
    }, 
    {
      "op": "LeakyReLU", 
      "name": "leaky_relu_71", 
      "attrs": {
        "act_type": "leaky", 
        "slope": "0.1"
      }, 
      "inputs": [[670, 0, 0]]
    }, 
    {
      "op": "Cast", 
      "name": "cast8", 
      "attrs": {"dtype": "float32"}, 
      "inputs": [[671, 0, 0]]
    }, 
    {
      "op": "null", 
      "name": "conv_output_2_weight", 
      "attrs": {
        "kernel": "(1, 1)", 
        "no_bias": "True", 
        "num_filter": "18", 
        "pad": "(0, 0)", 
        "stride": "(1, 1)"
      }, 
      "inputs": []
    }, 
    {
      "op": "Convolution", 
      "name": "conv_output_2", 
      "attrs": {
        "kernel": "(1, 1)", 
        "no_bias": "True", 
        "num_filter": "18", 
        "pad": "(0, 0)", 
        "stride": "(1, 1)"
      }, 
      "inputs": [[672, 0, 0], [673, 0, 0]]
    }, 
    {
      "op": "Reshape", 
      "name": "reshape42", 
      "attrs": {"shape": "(0, 18, -1)"}, 
      "inputs": [[674, 0, 0]]
    }, 
    {
      "op": "transpose", 
      "name": "transpose18", 
      "attrs": {"axes": "(0, 2, 1)"}, 
      "inputs": [[675, 0, 0]]
    }, 
    {
      "op": "Reshape", 
      "name": "reshape43", 
      "attrs": {"shape": "(0, -1, 3, 6)"}, 
      "inputs": [[676, 0, 0]]
    }, 
    {
      "op": "slice_axis", 
      "name": "slice_axis43", 
      "attrs": {
        "axis": "-1", 
        "begin": "5", 
        "end": "None"
      }, 
      "inputs": [[677, 0, 0]]
    }, 
    {
      "op": "sigmoid", 
      "name": "sigmoid26", 
      "inputs": [[678, 0, 0]]
    }, 
    {
      "op": "slice_axis", 
      "name": "slice_axis42", 
      "attrs": {
        "axis": "-1", 
        "begin": "4", 
        "end": "5"
      }, 
      "inputs": [[677, 0, 0]]
    }, 
    {
      "op": "sigmoid", 
      "name": "sigmoid25", 
      "inputs": [[680, 0, 0]]
    }, 
    {
      "op": "broadcast_mul", 
      "name": "broadcast_mul23", 
      "inputs": [[679, 0, 0], [681, 0, 0]]
    }, 
    {
      "op": "transpose", 
      "name": "transpose19", 
      "attrs": {"axes": "(3, 0, 1, 2)"}, 
      "inputs": [[682, 0, 0]]
    }, 
    {
      "op": "expand_dims", 
      "name": "expand_dims15", 
      "attrs": {"axis": "-1"}, 
      "inputs": [[683, 0, 0]]
    }, 
    {
      "op": "_mul_scalar", 
      "name": "_mulscalar25", 
      "attrs": {"scalar": "0"}, 
      "inputs": [[684, 0, 0]]
    }, 
    {
      "op": "_arange", 
      "name": "_arange5", 
      "attrs": {
        "dtype": "float32", 
        "repeat": "1", 
        "start": "0", 
        "step": "1.0", 
        "stop": "1"
      }, 
      "inputs": []
    }, 
    {
      "op": "Reshape", 
      "name": "reshape44", 
      "attrs": {"shape": "(0, 1, 1, 1, 1)"}, 
      "inputs": [[686, 0, 0]]
    }, 
    {
      "op": "broadcast_add", 
      "name": "broadcast_add15", 
      "inputs": [[685, 0, 0], [687, 0, 0]]
    }, 
    {
      "op": "slice_axis", 
      "name": "slice_axis40", 
      "attrs": {
        "axis": "-1", 
        "begin": "0", 
        "end": "2"
      }, 
      "inputs": [[677, 0, 0]]
    }, 
    {
      "op": "sigmoid", 
      "name": "sigmoid24", 
      "inputs": [[689, 0, 0]]
    }, 
    {
      "op": "null", 
      "name": "offset_2_weight", 
      "attrs": {
        "__lr_mult__": "0.0", 
        "__shape__": "(1, 2704, 1, 2)"
      }, 
      "inputs": []
    }, 
    {
      "op": "broadcast_add", 
      "name": "broadcast_add14", 
      "inputs": [[690, 0, 0], [691, 0, 0]]
    }, 
    {
      "op": "_mul_scalar", 
      "name": "_mulscalar24", 
      "attrs": {"scalar": "8"}, 
      "inputs": [[692, 0, 0]]
    }, 
    {
      "op": "slice_axis", 
      "name": "slice_axis41", 
      "attrs": {
        "axis": "-1", 
        "begin": "2", 
        "end": "4"
      }, 
      "inputs": [[677, 0, 0]]
    }, 
    {
      "op": "exp", 
      "name": "exp8", 
      "inputs": [[694, 0, 0]]
    }, 
    {
      "op": "null", 
      "name": "anchors_2_weight", 
      "attrs": {
        "__lr_mult__": "0.0", 
        "__shape__": "(1, 1, 3, 2)"
      }, 
      "inputs": []
    }, 
    {
      "op": "broadcast_mul", 
      "name": "broadcast_mul22", 
      "inputs": [[695, 0, 0], [696, 0, 0]]
    }, 
    {
      "op": "_div_scalar", 
      "name": "_divscalar8", 
      "attrs": {"scalar": "2.0"}, 
      "inputs": [[697, 0, 0]]
    }, 
    {
      "op": "elemwise_sub", 
      "name": "_minus19", 
      "inputs": [[693, 0, 0], [698, 0, 0]]
    }, 
    {
      "op": "elemwise_add", 
      "name": "_plus83", 
      "inputs": [[693, 0, 0], [698, 0, 0]]
    }, 
    {
      "op": "Concat", 
      "name": "concat25", 
      "attrs": {
        "dim": "-1", 
        "num_args": "2"
      }, 
      "inputs": [[699, 0, 0], [700, 0, 0]]
    }, 
    {
      "op": "tile", 
      "name": "tile9", 
      "attrs": {"reps": "(1, 1, 1, 1, 1)"}, 
      "inputs": [[701, 0, 0]]
    }, 
    {
      "op": "Concat", 
      "name": "concat26", 
      "attrs": {
        "dim": "-1", 
        "num_args": "3"
      }, 
      "inputs": [[688, 0, 0], [684, 0, 0], [702, 0, 0]]
    }, 
    {
      "op": "transpose", 
      "name": "transpose20", 
      "attrs": {"axes": "(1, 0, 2, 3, 4)"}, 
      "inputs": [[703, 0, 0]]
    }, 
    {
      "op": "Reshape", 
      "name": "reshape45", 
      "attrs": {"shape": "(0, -1, 6)"}, 
      "inputs": [[704, 0, 0]]
    }, 
    {
      "op": "Concat", 
      "name": "concat27", 
      "attrs": {
        "dim": "1", 
        "num_args": "3"
      }, 
      "inputs": [[521, 0, 0], [613, 0, 0], [705, 0, 0]]
    }, 
    {
      "op": "_contrib_box_nms", 
      "name": "box_nms1", 
      "attrs": {
        "coord_start": "2", 
        "force_suppress": "False", 
        "id_index": "0", 
        "overlap_thresh": "0.45", 
        "score_index": "1", 
        "topk": "400"
      }, 
      "inputs": [[706, 0, 0]]
    }, 
    {
      "op": "slice_axis", 
      "name": "slice_axis44", 
      "attrs": {
        "axis": "1", 
        "begin": "0", 
        "end": "100"
      }, 
      "inputs": [[707, 0, 0]]
    }, 
    {
      "op": "slice_axis", 
      "name": "slice_axis45", 
      "attrs": {
        "axis": "-1", 
        "begin": "0", 
        "end": "1"
      }, 
      "inputs": [[708, 0, 0]]
    }, 
    {
      "op": "slice_axis", 
      "name": "slice_axis46", 
      "attrs": {
        "axis": "-1", 
        "begin": "1", 
        "end": "2"
      }, 
      "inputs": [[708, 0, 0]]
    }, 
    {
      "op": "slice_axis", 
      "name": "slice_axis47", 
      "attrs": {
        "axis": "-1", 
        "begin": "2", 
        "end": "None"
      }, 
      "inputs": [[708, 0, 0]]
    }
  ], 
  "arg_nodes": [
    0, 
    1, 
    3, 
    4, 
    5, 
    6, 
    9, 
    11, 
    12, 
    13, 
    14, 
    17, 
    19, 
    20, 
    21, 
    22, 
    25, 
    27, 
    28, 
    29, 
    30, 
    34, 
    36, 
    37, 
    38, 
    39, 
    42, 
    44, 
    45, 
    46, 
    47, 
    50, 
    52, 
    53, 
    54, 
    55, 
    59, 
    61, 
    62, 
    63, 
    64, 
    67, 
    69, 
    70, 
    71, 
    72, 
    76, 
    78, 
    79, 
    80, 
    81, 
    84, 
    86, 
    87, 
    88, 
    89, 
    92, 
    94, 
    95, 
    96, 
    97, 
    101, 
    103, 
    104, 
    105, 
    106, 
    109, 
    111, 
    112, 
    113, 
    114, 
    118, 
    120, 
    121, 
    122, 
    123, 
    126, 
    128, 
    129, 
    130, 
    131, 
    135, 
    137, 
    138, 
    139, 
    140, 
    143, 
    145, 
    146, 
    147, 
    148, 
    152, 
    154, 
    155, 
    156, 
    157, 
    160, 
    162, 
    163, 
    164, 
    165, 
    169, 
    171, 
    172, 
    173, 
    174, 
    177, 
    179, 
    180, 
    181, 
    182, 
    186, 
    188, 
    189, 
    190, 
    191, 
    194, 
    196, 
    197, 
    198, 
    199, 
    203, 
    205, 
    206, 
    207, 
    208, 
    211, 
    213, 
    214, 
    215, 
    216, 
    220, 
    222, 
    223, 
    224, 
    225, 
    228, 
    230, 
    231, 
    232, 
    233, 
    236, 
    238, 
    239, 
    240, 
    241, 
    245, 
    247, 
    248, 
    249, 
    250, 
    253, 
    255, 
    256, 
    257, 
    258, 
    262, 
    264, 
    265, 
    266, 
    267, 
    270, 
    272, 
    273, 
    274, 
    275, 
    279, 
    281, 
    282, 
    283, 
    284, 
    287, 
    289, 
    290, 
    291, 
    292, 
    296, 
    298, 
    299, 
    300, 
    301, 
    304, 
    306, 
    307, 
    308, 
    309, 
    313, 
    315, 
    316, 
    317, 
    318, 
    321, 
    323, 
    324, 
    325, 
    326, 
    330, 
    332, 
    333, 
    334, 
    335, 
    338, 
    340, 
    341, 
    342, 
    343, 
    347, 
    349, 
    350, 
    351, 
    352, 
    355, 
    357, 
    358, 
    359, 
    360, 
    364, 
    366, 
    367, 
    368, 
    369, 
    372, 
    374, 
    375, 
    376, 
    377, 
    380, 
    382, 
    383, 
    384, 
    385, 
    389, 
    391, 
    392, 
    393, 
    394, 
    397, 
    399, 
    400, 
    401, 
    402, 
    406, 
    408, 
    409, 
    410, 
    411, 
    414, 
    416, 
    417, 
    418, 
    419, 
    423, 
    425, 
    426, 
    427, 
    428, 
    431, 
    433, 
    434, 
    435, 
    436, 
    440, 
    442, 
    443, 
    444, 
    445, 
    448, 
    450, 
    451, 
    452, 
    453, 
    456, 
    458, 
    459, 
    460, 
    461, 
    464, 
    466, 
    467, 
    468, 
    469, 
    472, 
    474, 
    475, 
    476, 
    477, 
    480, 
    482, 
    483, 
    484, 
    485, 
    489, 
    507, 
    512, 
    522, 
    524, 
    525, 
    526, 
    527, 
    532, 
    534, 
    535, 
    536, 
    537, 
    540, 
    542, 
    543, 
    544, 
    545, 
    548, 
    550, 
    551, 
    552, 
    553, 
    556, 
    558, 
    559, 
    560, 
    561, 
    564, 
    566, 
    567, 
    568, 
    569, 
    572, 
    574, 
    575, 
    576, 
    577, 
    581, 
    599, 
    604, 
    614, 
    616, 
    617, 
    618, 
    619, 
    624, 
    626, 
    627, 
    628, 
    629, 
    632, 
    634, 
    635, 
    636, 
    637, 
    640, 
    642, 
    643, 
    644, 
    645, 
    648, 
    650, 
    651, 
    652, 
    653, 
    656, 
    658, 
    659, 
    660, 
    661, 
    664, 
    666, 
    667, 
    668, 
    669, 
    673, 
    691, 
    696
  ], 
  "node_row_ptr": [
    0, 
    1, 
    2, 
    3, 
    4, 
    5, 
    6, 
    7, 
    10, 
    11, 
    12, 
    13, 
    14, 
    15, 
    16, 
    17, 
    20, 
    21, 
    22, 
    23, 
    24, 
    25, 
    26, 
    27, 
    30, 
    31, 
    32, 
    33, 
    34, 
    35, 
    36, 
    37, 
    40, 
    41, 
    42, 
    43, 
    44, 
    45, 
    46, 
    47, 
    48, 
    51, 
    52, 
    53, 
    54, 
    55, 
    56, 
    57, 
    58, 
    61, 
    62, 
    63, 
    64, 
    65, 
    66, 
    67, 
    68, 
    71, 
    72, 
    73, 
    74, 
    75, 
    76, 
    77, 
    78, 
    79, 
    82, 
    83, 
    84, 
    85, 
    86, 
    87, 
    88, 
    89, 
    92, 
    93, 
    94, 
    95, 
    96, 
    97, 
    98, 
    99, 
    100, 
    103, 
    104, 
    105, 
    106, 
    107, 
    108, 
    109, 
    110, 
    113, 
    114, 
    115, 
    116, 
    117, 
    118, 
    119, 
    120, 
    123, 
    124, 
    125, 
    126, 
    127, 
    128, 
    129, 
    130, 
    131, 
    134, 
    135, 
    136, 
    137, 
    138, 
    139, 
    140, 
    141, 
    144, 
    145, 
    146, 
    147, 
    148, 
    149, 
    150, 
    151, 
    152, 
    155, 
    156, 
    157, 
    158, 
    159, 
    160, 
    161, 
    162, 
    165, 
    166, 
    167, 
    168, 
    169, 
    170, 
    171, 
    172, 
    173, 
    176, 
    177, 
    178, 
    179, 
    180, 
    181, 
    182, 
    183, 
    186, 
    187, 
    188, 
    189, 
    190, 
    191, 
    192, 
    193, 
    194, 
    197, 
    198, 
    199, 
    200, 
    201, 
    202, 
    203, 
    204, 
    207, 
    208, 
    209, 
    210, 
    211, 
    212, 
    213, 
    214, 
    215, 
    218, 
    219, 
    220, 
    221, 
    222, 
    223, 
    224, 
    225, 
    228, 
    229, 
    230, 
    231, 
    232, 
    233, 
    234, 
    235, 
    236, 
    239, 
    240, 
    241, 
    242, 
    243, 
    244, 
    245, 
    246, 
    249, 
    250, 
    251, 
    252, 
    253, 
    254, 
    255, 
    256, 
    257, 
    260, 
    261, 
    262, 
    263, 
    264, 
    265, 
    266, 
    267, 
    270, 
    271, 
    272, 
    273, 
    274, 
    275, 
    276, 
    277, 
    278, 
    281, 
    282, 
    283, 
    284, 
    285, 
    286, 
    287, 
    288, 
    291, 
    292, 
    293, 
    294, 
    295, 
    296, 
    297, 
    298, 
    301, 
    302, 
    303, 
    304, 
    305, 
    306, 
    307, 
    308, 
    309, 
    312, 
    313, 
    314, 
    315, 
    316, 
    317, 
    318, 
    319, 
    322, 
    323, 
    324, 
    325, 
    326, 
    327, 
    328, 
    329, 
    330, 
    333, 
    334, 
    335, 
    336, 
    337, 
    338, 
    339, 
    340, 
    343, 
    344, 
    345, 
    346, 
    347, 
    348, 
    349, 
    350, 
    351, 
    354, 
    355, 
    356, 
    357, 
    358, 
    359, 
    360, 
    361, 
    364, 
    365, 
    366, 
    367, 
    368, 
    369, 
    370, 
    371, 
    372, 
    375, 
    376, 
    377, 
    378, 
    379, 
    380, 
    381, 
    382, 
    385, 
    386, 
    387, 
    388, 
    389, 
    390, 
    391, 
    392, 
    393, 
    396, 
    397, 
    398, 
    399, 
    400, 
    401, 
    402, 
    403, 
    406, 
    407, 
    408, 
    409, 
    410, 
    411, 
    412, 
    413, 
    414, 
    417, 
    418, 
    419, 
    420, 
    421, 
    422, 
    423, 
    424, 
    427, 
    428, 
    429, 
    430, 
    431, 
    432, 
    433, 
    434, 
    435, 
    438, 
    439, 
    440, 
    441, 
    442, 
    443, 
    444, 
    445, 
    448, 
    449, 
    450, 
    451, 
    452, 
    453, 
    454, 
    455, 
    456, 
    459, 
    460, 
    461, 
    462, 
    463, 
    464, 
    465, 
    466, 
    469, 
    470, 
    471, 
    472, 
    473, 
    474, 
    475, 
    476, 
    479, 
    480, 
    481, 
    482, 
    483, 
    484, 
    485, 
    486, 
    487, 
    490, 
    491, 
    492, 
    493, 
    494, 
    495, 
    496, 
    497, 
    500, 
    501, 
    502, 
    503, 
    504, 
    505, 
    506, 
    507, 
    508, 
    511, 
    512, 
    513, 
    514, 
    515, 
    516, 
    517, 
    518, 
    521, 
    522, 
    523, 
    524, 
    525, 
    526, 
    527, 
    528, 
    529, 
    532, 
    533, 
    534, 
    535, 
    536, 
    537, 
    538, 
    539, 
    542, 
    543, 
    544, 
    545, 
    546, 
    547, 
    548, 
    549, 
    550, 
    553, 
    554, 
    555, 
    556, 
    557, 
    558, 
    559, 
    560, 
    563, 
    564, 
    565, 
    566, 
    567, 
    568, 
    569, 
    570, 
    573, 
    574, 
    575, 
    576, 
    577, 
    578, 
    579, 
    580, 
    583, 
    584, 
    585, 
    586, 
    587, 
    588, 
    589, 
    590, 
    593, 
    594, 
    595, 
    596, 
    597, 
    598, 
    599, 
    600, 
    603, 
    604, 
    605, 
    606, 
    607, 
    608, 
    609, 
    610, 
    611, 
    612, 
    613, 
    614, 
    615, 
    616, 
    617, 
    618, 
    619, 
    620, 
    621, 
    622, 
    623, 
    624, 
    625, 
    626, 
    627, 
    628, 
    629, 
    630, 
    631, 
    632, 
    633, 
    634, 
    635, 
    636, 
    637, 
    638, 
    639, 
    640, 
    641, 
    642, 
    643, 
    644, 
    647, 
    648, 
    649, 
    650, 
    651, 
    652, 
    653, 
    654, 
    655, 
    656, 
    659, 
    660, 
    661, 
    662, 
    663, 
    664, 
    665, 
    666, 
    669, 
    670, 
    671, 
    672, 
    673, 
    674, 
    675, 
    676, 
    679, 
    680, 
    681, 
    682, 
    683, 
    684, 
    685, 
    686, 
    689, 
    690, 
    691, 
    692, 
    693, 
    694, 
    695, 
    696, 
    699, 
    700, 
    701, 
    702, 
    703, 
    704, 
    705, 
    706, 
    709, 
    710, 
    711, 
    712, 
    713, 
    714, 
    715, 
    716, 
    717, 
    718, 
    719, 
    720, 
    721, 
    722, 
    723, 
    724, 
    725, 
    726, 
    727, 
    728, 
    729, 
    730, 
    731, 
    732, 
    733, 
    734, 
    735, 
    736, 
    737, 
    738, 
    739, 
    740, 
    741, 
    742, 
    743, 
    744, 
    745, 
    746, 
    747, 
    748, 
    749, 
    750, 
    753, 
    754, 
    755, 
    756, 
    757, 
    758, 
    759, 
    760, 
    761, 
    762, 
    765, 
    766, 
    767, 
    768, 
    769, 
    770, 
    771, 
    772, 
    775, 
    776, 
    777, 
    778, 
    779, 
    780, 
    781, 
    782, 
    785, 
    786, 
    787, 
    788, 
    789, 
    790, 
    791, 
    792, 
    795, 
    796, 
    797, 
    798, 
    799, 
    800, 
    801, 
    802, 
    805, 
    806, 
    807, 
    808, 
    809, 
    810, 
    811, 
    812, 
    815, 
    816, 
    817, 
    818, 
    819, 
    820, 
    821, 
    822, 
    823, 
    824, 
    825, 
    826, 
    827, 
    828, 
    829, 
    830, 
    831, 
    832, 
    833, 
    834, 
    835, 
    836, 
    837, 
    838, 
    839, 
    840, 
    841, 
    842, 
    843, 
    844, 
    845, 
    846, 
    847, 
    848, 
    849, 
    850, 
    851, 
    853, 
    854, 
    855, 
    856, 
    857
  ], 
  "heads": [[709, 0, 0], [710, 0, 0], [711, 0, 0]], 
  "attrs": {"mxnet_version": ["int", 10201]}
}